7767517
2936 3512
MemoryData       0                        0 1 tensor_2409 0=512 21=0
MemoryData       1                        0 1 tensor_2412 0=64 1=64 2=8 21=0
MemoryData       2                        0 1 tensor_2415 0=512 21=0
MemoryData       3                        0 1 tensor_2418 0=512 21=0
MemoryData       4                        0 1 tensor_2421 0=64 1=64 2=8 21=0
MemoryData       5                        0 1 tensor_2424 0=512 21=0
MemoryData       6                        0 1 tensor_2427 0=512 21=0
MemoryData       7                        0 1 tensor_2430 0=64 1=64 2=8 21=0
MemoryData       8                        0 1 tensor_2433 0=512 21=0
MemoryData       9                        0 1 tensor_2436 0=512 21=0
MemoryData       10                       0 1 tensor_2439 0=64 1=64 2=8 21=0
MemoryData       11                       0 1 tensor_2442 0=512 21=0
MemoryData       12                       0 1 tensor_2445 0=512 21=0
MemoryData       13                       0 1 tensor_2448 0=64 1=64 2=8 21=0
MemoryData       14                       0 1 tensor_2451 0=512 21=0
MemoryData       15                       0 1 tensor_2454 0=512 21=0
MemoryData       16                       0 1 tensor_2457 0=64 1=64 2=8 21=0
MemoryData       17                       0 1 tensor_2460 0=512 21=0
MemoryData       18                       0 1 tensor_2463 0=512 21=0
MemoryData       19                       0 1 tensor_2466 0=64 1=64 2=8 21=0
MemoryData       20                       0 1 tensor_2469 0=512 21=0
MemoryData       21                       0 1 tensor_2472 0=512 21=0
MemoryData       22                       0 1 tensor_2475 0=64 1=64 2=8 21=0
MemoryData       23                       0 1 tensor_2478 0=512 21=0
MemoryData       24                       0 1 tensor_2481 0=512 21=0
MemoryData       25                       0 1 tensor_2484 0=64 1=64 2=8 21=0
MemoryData       26                       0 1 tensor_2487 0=512 21=0
MemoryData       27                       0 1 tensor_2490 0=512 21=0
MemoryData       28                       0 1 tensor_2493 0=64 1=64 2=8 21=0
MemoryData       29                       0 1 tensor_2496 0=512 21=0
MemoryData       30                       0 1 tensor_2499 0=512 21=0
MemoryData       31                       0 1 tensor_2502 0=64 1=64 2=8 21=0
MemoryData       32                       0 1 tensor_2505 0=512 21=0
MemoryData       33                       0 1 tensor_2508 0=512 21=0
MemoryData       34                       0 1 tensor_2511 0=64 1=64 2=8 21=0
MemoryData       35                       0 1 tensor_2514 0=512 21=0
MemoryData       36                       0 1 tensor_2517 0=512 21=0
MemoryData       37                       0 1 tensor_2520 0=64 1=64 2=8 21=0
MemoryData       38                       0 1 tensor_2523 0=512 21=0
MemoryData       39                       0 1 tensor_2526 0=512 21=0
MemoryData       40                       0 1 tensor_2529 0=64 1=64 2=8 21=0
MemoryData       41                       0 1 tensor_2532 0=512 21=0
MemoryData       42                       0 1 tensor_2535 0=512 21=0
MemoryData       43                       0 1 tensor_2538 0=64 1=64 2=8 21=0
MemoryData       44                       0 1 tensor_2541 0=512 21=0
MemoryData       45                       0 1 tensor_2544 0=512 21=0
MemoryData       46                       0 1 tensor_2547 0=64 1=64 2=8 21=0
MemoryData       47                       0 1 tensor_2550 0=512 21=0
MemoryData       48                       0 1 tensor_2553 0=512 21=0
MemoryData       49                       0 1 tensor_2556 0=64 1=64 2=8 21=0
MemoryData       50                       0 1 tensor_2559 0=512 21=0
MemoryData       51                       0 1 tensor_2562 0=512 21=0
MemoryData       52                       0 1 tensor_2565 0=64 1=64 2=8 21=0
MemoryData       53                       0 1 tensor_2568 0=512 21=0
MemoryData       54                       0 1 tensor_2571 0=512 21=0
MemoryData       55                       0 1 tensor_2574 0=64 1=64 2=8 21=0
MemoryData       56                       0 1 tensor_2577 0=512 21=0
MemoryData       57                       0 1 tensor_2580 0=512 21=0
MemoryData       58                       0 1 tensor_2583 0=64 1=64 2=8 21=0
MemoryData       59                       0 1 tensor_2586 0=512 21=0
MemoryData       60                       0 1 tensor_2589 0=512 21=0
MemoryData       61                       0 1 tensor_2592 0=64 1=64 2=8 21=0
MemoryData       62                       0 1 tensor_2595 0=512 21=0
MemoryData       63                       0 1 tensor_2598 0=512 21=0
MemoryData       64                       0 1 tensor_2601 0=64 1=64 2=8 21=0
MemoryData       65                       0 1 tensor_2604 0=512 21=0
MemoryData       66                       0 1 tensor_2607 0=512 21=0
MemoryData       67                       0 1 tensor_2610 0=64 1=64 2=8 21=0
MemoryData       68                       0 1 tensor_2613 0=512 21=0
MemoryData       69                       0 1 tensor_2616 0=512 21=0
MemoryData       70                       0 1 tensor_2619 0=64 1=64 2=8 21=0
MemoryData       71                       0 1 tensor_2622 0=512 21=0
Input            72                       0 1 input_id 0=1
Input            73                       0 1 state_0_0 0=512
Input            74                       0 1 state_0_1 0=64 1=64 2=8
Input            75                       0 1 state_0_2 0=512
Input            76                       0 1 state_1_0 0=512
Input            77                       0 1 state_1_1 0=64 1=64 2=8
Input            78                       0 1 state_1_2 0=512
Input            79                       0 1 state_2_0 0=512
Input            80                       0 1 state_2_1 0=64 1=64 2=8
Input            81                       0 1 state_2_2 0=512
Input            82                       0 1 state_3_0 0=512
Input            83                       0 1 state_3_1 0=64 1=64 2=8
Input            84                       0 1 state_3_2 0=512
Input            85                       0 1 state_4_0 0=512
Input            86                       0 1 state_4_1 0=64 1=64 2=8
Input            87                       0 1 state_4_2 0=512
Input            88                       0 1 state_5_0 0=512
Input            89                       0 1 state_5_1 0=64 1=64 2=8
Input            90                       0 1 state_5_2 0=512
Input            91                       0 1 state_6_0 0=512
Input            92                       0 1 state_6_1 0=64 1=64 2=8
Input            93                       0 1 state_6_2 0=512
Input            94                       0 1 state_7_0 0=512
Input            95                       0 1 state_7_1 0=64 1=64 2=8
Input            96                       0 1 state_7_2 0=512
Input            97                       0 1 state_8_0 0=512
Input            98                       0 1 state_8_1 0=64 1=64 2=8
Input            99                       0 1 state_8_2 0=512
Input            100                      0 1 state_9_0 0=512
Input            101                      0 1 state_9_1 0=64 1=64 2=8
Input            102                      0 1 state_9_2 0=512
Input            103                      0 1 state_10_0 0=512
Input            104                      0 1 state_10_1 0=64 1=64 2=8
Input            105                      0 1 state_10_2 0=512
Input            106                      0 1 state_11_0 0=512
Input            107                      0 1 state_11_1 0=64 1=64 2=8
Input            108                      0 1 state_11_2 0=512
Input            109                      0 1 state_12_0 0=512
Input            110                      0 1 state_12_1 0=64 1=64 2=8
Input            111                      0 1 state_12_2 0=512
Input            112                      0 1 state_13_0 0=512
Input            113                      0 1 state_13_1 0=64 1=64 2=8
Input            114                      0 1 state_13_2 0=512
Input            115                      0 1 state_14_0 0=512
Input            116                      0 1 state_14_1 0=64 1=64 2=8
Input            117                      0 1 state_14_2 0=512
Input            118                      0 1 state_15_0 0=512
Input            119                      0 1 state_15_1 0=64 1=64 2=8
Input            120                      0 1 state_15_2 0=512
Input            121                      0 1 state_16_0 0=512
Input            122                      0 1 state_16_1 0=64 1=64 2=8
Input            123                      0 1 state_16_2 0=512
Input            124                      0 1 state_17_0 0=512
Input            125                      0 1 state_17_1 0=64 1=64 2=8
Input            126                      0 1 state_17_2 0=512
Input            127                      0 1 state_18_0 0=512
Input            128                      0 1 state_18_1 0=64 1=64 2=8
Input            129                      0 1 state_18_2 0=512
Input            130                      0 1 state_19_0 0=512
Input            131                      0 1 state_19_1 0=64 1=64 2=8
Input            132                      0 1 state_19_2 0=512
Input            133                      0 1 state_20_0 0=512
Input            134                      0 1 state_20_1 0=64 1=64 2=8
Input            135                      0 1 state_20_2 0=512
Input            136                      0 1 state_21_0 0=512
Input            137                      0 1 state_21_1 0=64 1=64 2=8
Input            138                      0 1 state_21_2 0=512
Input            139                      0 1 state_22_0 0=512
Input            140                      0 1 state_22_1 0=64 1=64 2=8
Input            141                      0 1 state_22_2 0=512
Input            142                      0 1 state_23_0 0=512
Input            143                      0 1 state_23_1 0=64 1=64 2=8
Input            144                      0 1 state_23_2 0=512
Embed            145                      1 1 input_id tensor_2699 0=512 1=128 3=65536 4=64
Reshape          146                      1 1 tensor_2699 tensor_2702 0=512
Split            147                      1 2 tensor_2702 tensor_2703 tensor_2704
LayerNorm        148                      1 1 tensor_2703 tensor_2705 0=512 1=1.000000e-05 2=1
Split            149                      1 3 tensor_2705 tensor_2706 tensor_2707 tensor_2708
Split            150                      1 6 tensor_2706 tensor_2709 tensor_2710 tensor_2711 tensor_2712 tensor_2713 tensor_2714
BinaryOp         151                      2 1 state_0_0 tensor_2707 tensor_2715 0=1
Split            152                      1 6 tensor_2715 tensor_2716 tensor_2717 tensor_2718 tensor_2719 tensor_2720 tensor_2721
MemoryData       153                      0 1 blocks.0.att.time_mix_x 0=512 21=0
BinaryOp         154                      2 1 tensor_2716 blocks.0.att.time_mix_x tensor_2723 0=2
BinaryOp         155                      2 1 tensor_2708 tensor_2723 tensor_2724 0=0
MemoryData       156                      0 1 blocks.0.att.time_mix_w1 0=160 1=512 21=0
MatMul           157                      2 1 tensor_2724 blocks.0.att.time_mix_w1 tensor_2726 0=0
TanH             158                      1 1 tensor_2726 tensor_2727
Reshape          159                      1 1 tensor_2727 tensor_2728 0=32 1=1 2=5
MemoryData       160                      0 1 blocks.0.att.time_mix_w2 0=512 1=32 2=5 21=0
MatMul           161                      2 1 tensor_2728 blocks.0.att.time_mix_w2 tensor_2730 0=0
Reshape          162                      1 1 tensor_2730 tensor_2731 0=512 1=5
Slice            163                      1 5 tensor_2731 tensor_2732 tensor_2733 tensor_2734 tensor_2735 tensor_2736 -23300=5,-233,-233,-233,-233,-233 1=0
Reshape          164                      1 1 tensor_2732 tensor_2737 0=512
MemoryData       165                      0 1 blocks.0.att.time_mix_w 0=512 21=0
BinaryOp         166                      2 1 blocks.0.att.time_mix_w tensor_2737 tensor_2739 0=0
BinaryOp         167                      2 1 tensor_2717 tensor_2739 tensor_2740 0=2
BinaryOp         168                      2 1 tensor_2709 tensor_2740 tensor_2741 0=0
Reshape          169                      1 1 tensor_2733 tensor_2742 0=512
MemoryData       170                      0 1 blocks.0.att.time_mix_k 0=512 21=0
BinaryOp         171                      2 1 blocks.0.att.time_mix_k tensor_2742 tensor_2744 0=0
BinaryOp         172                      2 1 tensor_2718 tensor_2744 tensor_2745 0=2
BinaryOp         173                      2 1 tensor_2710 tensor_2745 tensor_2746 0=0
Reshape          174                      1 1 tensor_2734 tensor_2747 0=512
MemoryData       175                      0 1 blocks.0.att.time_mix_v 0=512 21=0
BinaryOp         176                      2 1 blocks.0.att.time_mix_v tensor_2747 tensor_2749 0=0
BinaryOp         177                      2 1 tensor_2719 tensor_2749 tensor_2750 0=2
BinaryOp         178                      2 1 tensor_2711 tensor_2750 tensor_2751 0=0
Reshape          179                      1 1 tensor_2735 tensor_2752 0=512
MemoryData       180                      0 1 blocks.0.att.time_mix_r 0=512 21=0
BinaryOp         181                      2 1 blocks.0.att.time_mix_r tensor_2752 tensor_2754 0=0
BinaryOp         182                      2 1 tensor_2720 tensor_2754 tensor_2755 0=2
BinaryOp         183                      2 1 tensor_2712 tensor_2755 tensor_2756 0=0
Reshape          184                      1 1 tensor_2736 tensor_2757 0=512
MemoryData       185                      0 1 blocks.0.att.time_mix_g 0=512 21=0
BinaryOp         186                      2 1 blocks.0.att.time_mix_g tensor_2757 tensor_2759 0=0
BinaryOp         187                      2 1 tensor_2721 tensor_2759 tensor_2760 0=2
BinaryOp         188                      2 1 tensor_2713 tensor_2760 tensor_2761 0=0
Reshape          189                      1 1 tensor_2741 tensor_2762 0=0 1=1
Gemm             190                      1 1 tensor_2762 tensor_2764 4=0 5=1 6=1 7=0 8=64 9=512 10=-1
Reshape          191                      1 1 tensor_2764 tensor_2765 0=-1
TanH             192                      1 1 tensor_2765 tensor_2766
Reshape          193                      1 1 tensor_2766 tensor_2767 0=0 1=1
Gemm             194                      1 1 tensor_2767 tensor_2769 4=0 5=1 6=1 7=0 8=512 9=64 10=-1
Reshape          195                      1 1 tensor_2769 tensor_2770 0=-1
Reshape          196                      1 1 tensor_2770 tensor_2771 0=1 1=64 2=8
MemoryData       197                      0 1 blocks.0.att.time_decay 0=1 1=64 2=8 21=0
BinaryOp         198                      2 1 blocks.0.att.time_decay tensor_2771 tensor_2773 0=0
Exp              199                      1 1 tensor_2773 tensor_2774
BinaryOp         200                      1 1 tensor_2774 tensor_2775 0=7 1=1 2=0.000000e+00
Exp              201                      1 1 tensor_2775 tensor_2776
Reshape          202                      1 1 tensor_2756 tensor_2777 0=0 1=1
Gemm             203                      1 1 tensor_2777 tensor_2779 4=0 5=1 6=1 7=0 8=512 9=512 10=-1
Reshape          204                      1 1 tensor_2779 tensor_2780 0=-1
Reshape          205                      1 1 tensor_2780 tensor_2781 0=64 1=1 2=8
Reshape          206                      1 1 tensor_2746 tensor_2782 0=0 1=1
Gemm             207                      1 1 tensor_2782 tensor_2784 4=0 5=1 6=1 7=0 8=512 9=512 10=-1
Reshape          208                      1 1 tensor_2784 tensor_2785 0=-1
Reshape          209                      1 1 tensor_2785 tensor_2786 0=1 1=64 2=8
Reshape          210                      1 1 tensor_2751 tensor_2787 0=0 1=1
Gemm             211                      1 1 tensor_2787 tensor_2789 4=0 5=1 6=1 7=0 8=512 9=512 10=-1
Reshape          212                      1 1 tensor_2789 tensor_2790 0=-1
Reshape          213                      1 1 tensor_2790 tensor_2791 0=64 1=1 2=8
Reshape          214                      1 1 tensor_2761 tensor_2792 0=0 1=1
Gemm             215                      1 1 tensor_2792 tensor_2794 4=0 5=1 6=1 7=0 8=512 9=512 10=-1
Reshape          216                      1 1 tensor_2794 tensor_2795 0=-1
Swish            217                      1 1 tensor_2795 tensor_2796
MatMul           218                      2 1 tensor_2786 tensor_2791 tensor_2797 0=0
Split            219                      1 2 tensor_2797 tensor_2798 tensor_2799
Split            220                      1 2 state_0_1 tensor_2800 tensor_2801
MemoryData       221                      0 1 blocks.0.att.time_first 0=1 1=64 2=8 21=0
BinaryOp         222                      2 1 tensor_2798 blocks.0.att.time_first tensor_2803 0=2
BinaryOp         223                      2 1 tensor_2803 tensor_2800 tensor_2804 0=0
MatMul           224                      2 1 tensor_2781 tensor_2804 tensor_2805 0=0
BinaryOp         225                      2 1 tensor_2801 tensor_2776 tensor_2806 0=2
BinaryOp         226                      2 1 tensor_2799 tensor_2806 tensor_2807 0=0
Reshape          227                      1 1 tensor_2805 tensor_2808 0=512
GroupNorm        228                      1 1 tensor_2808 tensor_2809 0=8 1=512 2=1.000000e-05 3=1
Reshape          229                      1 1 tensor_2809 tensor_2810 0=512
BinaryOp         230                      2 1 tensor_2810 tensor_2796 tensor_2811 0=2
Reshape          231                      1 1 tensor_2811 tensor_2812 0=0 1=1
Gemm             232                      1 1 tensor_2812 tensor_2814 4=0 5=1 6=1 7=0 8=512 9=512 10=-1
Reshape          233                      1 1 tensor_2814 tensor_2815 0=-1
BinaryOp         234                      2 1 tensor_2704 tensor_2815 tensor_2816 0=0
Split            235                      1 1 tensor_2714 output_state_0_0
Split            236                      1 1 tensor_2807 output_state_0_1
Split            237                      1 2 tensor_2816 tensor_2819 tensor_2820
LayerNorm        238                      1 1 tensor_2819 tensor_2821 0=512 1=1.000000e-05 2=1
Split            239                      1 4 tensor_2821 tensor_2822 tensor_2823 tensor_2824 tensor_2825
BinaryOp         240                      2 1 state_0_2 tensor_2825 tensor_2826 0=1
Split            241                      1 2 tensor_2826 tensor_2827 tensor_2828
MemoryData       242                      0 1 blocks.0.ffn.time_mix_k 0=512 21=0
BinaryOp         243                      2 1 tensor_2827 blocks.0.ffn.time_mix_k tensor_2830 0=2
BinaryOp         244                      2 1 tensor_2822 tensor_2830 tensor_2831 0=0
MemoryData       245                      0 1 blocks.0.ffn.time_mix_r 0=512 21=0
BinaryOp         246                      2 1 tensor_2828 blocks.0.ffn.time_mix_r tensor_2833 0=2
BinaryOp         247                      2 1 tensor_2823 tensor_2833 tensor_2834 0=0
Reshape          248                      1 1 tensor_2834 tensor_2835 0=0 1=1
Gemm             249                      1 1 tensor_2835 tensor_2837 4=0 5=1 6=1 7=0 8=512 9=512 10=-1
Reshape          250                      1 1 tensor_2837 tensor_2838 0=-1
Sigmoid          251                      1 1 tensor_2838 tensor_2839
Reshape          252                      1 1 tensor_2831 tensor_2840 0=0 1=1
Gemm             253                      1 1 tensor_2840 tensor_2842 4=0 5=1 6=1 7=0 8=1792 9=512 10=-1
Reshape          254                      1 1 tensor_2842 tensor_2843 0=-1
ReLU             255                      1 1 tensor_2843 tensor_2844
BinaryOp         256                      2 1 tensor_2844 tensor_2844 tensor_2845 0=2
Reshape          257                      1 1 tensor_2845 tensor_2846 0=0 1=1
Gemm             258                      1 1 tensor_2846 tensor_2848 4=0 5=1 6=1 7=0 8=512 9=1792 10=-1
Reshape          259                      1 1 tensor_2848 tensor_2849 0=-1
BinaryOp         260                      2 1 tensor_2839 tensor_2849 tensor_2850 0=2
BinaryOp         261                      2 1 tensor_2820 tensor_2850 tensor_2851 0=0
Split            262                      1 1 tensor_2824 output_state_0_2
Split            263                      1 2 tensor_2851 tensor_2853 tensor_2854
LayerNorm        264                      1 1 tensor_2853 tensor_2855 0=512 1=1.000000e-05 2=1
Split            265                      1 3 tensor_2855 tensor_2856 tensor_2857 tensor_2858
Split            266                      1 6 tensor_2856 tensor_2859 tensor_2860 tensor_2861 tensor_2862 tensor_2863 tensor_2864
BinaryOp         267                      2 1 state_1_0 tensor_2857 tensor_2865 0=1
Split            268                      1 6 tensor_2865 tensor_2866 tensor_2867 tensor_2868 tensor_2869 tensor_2870 tensor_2871
MemoryData       269                      0 1 blocks.1.att.time_mix_x 0=512 21=0
BinaryOp         270                      2 1 tensor_2866 blocks.1.att.time_mix_x tensor_2873 0=2
BinaryOp         271                      2 1 tensor_2858 tensor_2873 tensor_2874 0=0
MemoryData       272                      0 1 blocks.1.att.time_mix_w1 0=160 1=512 21=0
MatMul           273                      2 1 tensor_2874 blocks.1.att.time_mix_w1 tensor_2876 0=0
TanH             274                      1 1 tensor_2876 tensor_2877
Reshape          275                      1 1 tensor_2877 tensor_2878 0=32 1=1 2=5
MemoryData       276                      0 1 blocks.1.att.time_mix_w2 0=512 1=32 2=5 21=0
MatMul           277                      2 1 tensor_2878 blocks.1.att.time_mix_w2 tensor_2880 0=0
Reshape          278                      1 1 tensor_2880 tensor_2881 0=512 1=5
Slice            279                      1 5 tensor_2881 tensor_2882 tensor_2883 tensor_2884 tensor_2885 tensor_2886 -23300=5,-233,-233,-233,-233,-233 1=0
Reshape          280                      1 1 tensor_2882 tensor_2887 0=512
MemoryData       281                      0 1 blocks.1.att.time_mix_w 0=512 21=0
BinaryOp         282                      2 1 blocks.1.att.time_mix_w tensor_2887 tensor_2889 0=0
BinaryOp         283                      2 1 tensor_2867 tensor_2889 tensor_2890 0=2
BinaryOp         284                      2 1 tensor_2859 tensor_2890 tensor_2891 0=0
Reshape          285                      1 1 tensor_2883 tensor_2892 0=512
MemoryData       286                      0 1 blocks.1.att.time_mix_k 0=512 21=0
BinaryOp         287                      2 1 blocks.1.att.time_mix_k tensor_2892 tensor_2894 0=0
BinaryOp         288                      2 1 tensor_2868 tensor_2894 tensor_2895 0=2
BinaryOp         289                      2 1 tensor_2860 tensor_2895 tensor_2896 0=0
Reshape          290                      1 1 tensor_2884 tensor_2897 0=512
MemoryData       291                      0 1 blocks.1.att.time_mix_v 0=512 21=0
BinaryOp         292                      2 1 blocks.1.att.time_mix_v tensor_2897 tensor_2899 0=0
BinaryOp         293                      2 1 tensor_2869 tensor_2899 tensor_2900 0=2
BinaryOp         294                      2 1 tensor_2861 tensor_2900 tensor_2901 0=0
Reshape          295                      1 1 tensor_2885 tensor_2902 0=512
MemoryData       296                      0 1 blocks.1.att.time_mix_r 0=512 21=0
BinaryOp         297                      2 1 blocks.1.att.time_mix_r tensor_2902 tensor_2904 0=0
BinaryOp         298                      2 1 tensor_2870 tensor_2904 tensor_2905 0=2
BinaryOp         299                      2 1 tensor_2862 tensor_2905 tensor_2906 0=0
Reshape          300                      1 1 tensor_2886 tensor_2907 0=512
MemoryData       301                      0 1 blocks.1.att.time_mix_g 0=512 21=0
BinaryOp         302                      2 1 blocks.1.att.time_mix_g tensor_2907 tensor_2909 0=0
BinaryOp         303                      2 1 tensor_2871 tensor_2909 tensor_2910 0=2
BinaryOp         304                      2 1 tensor_2863 tensor_2910 tensor_2911 0=0
Reshape          305                      1 1 tensor_2891 tensor_2912 0=0 1=1
Gemm             306                      1 1 tensor_2912 tensor_2914 4=0 5=1 6=1 7=0 8=64 9=512 10=-1
Reshape          307                      1 1 tensor_2914 tensor_2915 0=-1
TanH             308                      1 1 tensor_2915 tensor_2916
Reshape          309                      1 1 tensor_2916 tensor_2917 0=0 1=1
Gemm             310                      1 1 tensor_2917 tensor_2919 4=0 5=1 6=1 7=0 8=512 9=64 10=-1
Reshape          311                      1 1 tensor_2919 tensor_2920 0=-1
Reshape          312                      1 1 tensor_2920 tensor_2921 0=1 1=64 2=8
MemoryData       313                      0 1 blocks.1.att.time_decay 0=1 1=64 2=8 21=0
BinaryOp         314                      2 1 blocks.1.att.time_decay tensor_2921 tensor_2923 0=0
Exp              315                      1 1 tensor_2923 tensor_2924
BinaryOp         316                      1 1 tensor_2924 tensor_2925 0=7 1=1 2=0.000000e+00
Exp              317                      1 1 tensor_2925 tensor_2926
Reshape          318                      1 1 tensor_2906 tensor_2927 0=0 1=1
Gemm             319                      1 1 tensor_2927 tensor_2929 4=0 5=1 6=1 7=0 8=512 9=512 10=-1
Reshape          320                      1 1 tensor_2929 tensor_2930 0=-1
Reshape          321                      1 1 tensor_2930 tensor_2931 0=64 1=1 2=8
Reshape          322                      1 1 tensor_2896 tensor_2932 0=0 1=1
Gemm             323                      1 1 tensor_2932 tensor_2934 4=0 5=1 6=1 7=0 8=512 9=512 10=-1
Reshape          324                      1 1 tensor_2934 tensor_2935 0=-1
Reshape          325                      1 1 tensor_2935 tensor_2936 0=1 1=64 2=8
Reshape          326                      1 1 tensor_2901 tensor_2937 0=0 1=1
Gemm             327                      1 1 tensor_2937 tensor_2939 4=0 5=1 6=1 7=0 8=512 9=512 10=-1
Reshape          328                      1 1 tensor_2939 tensor_2940 0=-1
Reshape          329                      1 1 tensor_2940 tensor_2941 0=64 1=1 2=8
Reshape          330                      1 1 tensor_2911 tensor_2942 0=0 1=1
Gemm             331                      1 1 tensor_2942 tensor_2944 4=0 5=1 6=1 7=0 8=512 9=512 10=-1
Reshape          332                      1 1 tensor_2944 tensor_2945 0=-1
Swish            333                      1 1 tensor_2945 tensor_2946
MatMul           334                      2 1 tensor_2936 tensor_2941 tensor_2947 0=0
Split            335                      1 2 tensor_2947 tensor_2948 tensor_2949
Split            336                      1 2 state_1_1 tensor_2950 tensor_2951
MemoryData       337                      0 1 blocks.1.att.time_first 0=1 1=64 2=8 21=0
BinaryOp         338                      2 1 tensor_2948 blocks.1.att.time_first tensor_2953 0=2
BinaryOp         339                      2 1 tensor_2953 tensor_2950 tensor_2954 0=0
MatMul           340                      2 1 tensor_2931 tensor_2954 tensor_2955 0=0
BinaryOp         341                      2 1 tensor_2951 tensor_2926 tensor_2956 0=2
BinaryOp         342                      2 1 tensor_2949 tensor_2956 tensor_2957 0=0
Reshape          343                      1 1 tensor_2955 tensor_2958 0=512
GroupNorm        344                      1 1 tensor_2958 tensor_2959 0=8 1=512 2=1.000000e-05 3=1
Reshape          345                      1 1 tensor_2959 tensor_2960 0=512
BinaryOp         346                      2 1 tensor_2960 tensor_2946 tensor_2961 0=2
Reshape          347                      1 1 tensor_2961 tensor_2962 0=0 1=1
Gemm             348                      1 1 tensor_2962 tensor_2964 4=0 5=1 6=1 7=0 8=512 9=512 10=-1
Reshape          349                      1 1 tensor_2964 tensor_2965 0=-1
BinaryOp         350                      2 1 tensor_2854 tensor_2965 tensor_2966 0=0
Split            351                      1 1 tensor_2864 output_state_1_0
Split            352                      1 1 tensor_2957 output_state_1_1
Split            353                      1 2 tensor_2966 tensor_2969 tensor_2970
LayerNorm        354                      1 1 tensor_2969 tensor_2971 0=512 1=1.000000e-05 2=1
Split            355                      1 4 tensor_2971 tensor_2972 tensor_2973 tensor_2974 tensor_2975
BinaryOp         356                      2 1 state_1_2 tensor_2975 tensor_2976 0=1
Split            357                      1 2 tensor_2976 tensor_2977 tensor_2978
MemoryData       358                      0 1 blocks.1.ffn.time_mix_k 0=512 21=0
BinaryOp         359                      2 1 tensor_2977 blocks.1.ffn.time_mix_k tensor_2980 0=2
BinaryOp         360                      2 1 tensor_2972 tensor_2980 tensor_2981 0=0
MemoryData       361                      0 1 blocks.1.ffn.time_mix_r 0=512 21=0
BinaryOp         362                      2 1 tensor_2978 blocks.1.ffn.time_mix_r tensor_2983 0=2
BinaryOp         363                      2 1 tensor_2973 tensor_2983 tensor_2984 0=0
Reshape          364                      1 1 tensor_2984 tensor_2985 0=0 1=1
Gemm             365                      1 1 tensor_2985 tensor_2987 4=0 5=1 6=1 7=0 8=512 9=512 10=-1
Reshape          366                      1 1 tensor_2987 tensor_2988 0=-1
Sigmoid          367                      1 1 tensor_2988 tensor_2989
Reshape          368                      1 1 tensor_2981 tensor_2990 0=0 1=1
Gemm             369                      1 1 tensor_2990 tensor_2992 4=0 5=1 6=1 7=0 8=1792 9=512 10=-1
Reshape          370                      1 1 tensor_2992 tensor_2993 0=-1
ReLU             371                      1 1 tensor_2993 tensor_2994
BinaryOp         372                      2 1 tensor_2994 tensor_2994 tensor_2995 0=2
Reshape          373                      1 1 tensor_2995 tensor_2996 0=0 1=1
Gemm             374                      1 1 tensor_2996 tensor_2998 4=0 5=1 6=1 7=0 8=512 9=1792 10=-1
Reshape          375                      1 1 tensor_2998 tensor_2999 0=-1
BinaryOp         376                      2 1 tensor_2989 tensor_2999 tensor_3000 0=2
BinaryOp         377                      2 1 tensor_2970 tensor_3000 tensor_3001 0=0
Split            378                      1 1 tensor_2974 output_state_1_2
Split            379                      1 2 tensor_3001 tensor_3003 tensor_3004
LayerNorm        380                      1 1 tensor_3003 tensor_3005 0=512 1=1.000000e-05 2=1
Split            381                      1 3 tensor_3005 tensor_3006 tensor_3007 tensor_3008
Split            382                      1 6 tensor_3006 tensor_3009 tensor_3010 tensor_3011 tensor_3012 tensor_3013 tensor_3014
BinaryOp         383                      2 1 state_2_0 tensor_3007 tensor_3015 0=1
Split            384                      1 6 tensor_3015 tensor_3016 tensor_3017 tensor_3018 tensor_3019 tensor_3020 tensor_3021
MemoryData       385                      0 1 blocks.2.att.time_mix_x 0=512 21=0
BinaryOp         386                      2 1 tensor_3016 blocks.2.att.time_mix_x tensor_3023 0=2
BinaryOp         387                      2 1 tensor_3008 tensor_3023 tensor_3024 0=0
MemoryData       388                      0 1 blocks.2.att.time_mix_w1 0=160 1=512 21=0
MatMul           389                      2 1 tensor_3024 blocks.2.att.time_mix_w1 tensor_3026 0=0
TanH             390                      1 1 tensor_3026 tensor_3027
Reshape          391                      1 1 tensor_3027 tensor_3028 0=32 1=1 2=5
MemoryData       392                      0 1 blocks.2.att.time_mix_w2 0=512 1=32 2=5 21=0
MatMul           393                      2 1 tensor_3028 blocks.2.att.time_mix_w2 tensor_3030 0=0
Reshape          394                      1 1 tensor_3030 tensor_3031 0=512 1=5
Slice            395                      1 5 tensor_3031 tensor_3032 tensor_3033 tensor_3034 tensor_3035 tensor_3036 -23300=5,-233,-233,-233,-233,-233 1=0
Reshape          396                      1 1 tensor_3032 tensor_3037 0=512
MemoryData       397                      0 1 blocks.2.att.time_mix_w 0=512 21=0
BinaryOp         398                      2 1 blocks.2.att.time_mix_w tensor_3037 tensor_3039 0=0
BinaryOp         399                      2 1 tensor_3017 tensor_3039 tensor_3040 0=2
BinaryOp         400                      2 1 tensor_3009 tensor_3040 tensor_3041 0=0
Reshape          401                      1 1 tensor_3033 tensor_3042 0=512
MemoryData       402                      0 1 blocks.2.att.time_mix_k 0=512 21=0
BinaryOp         403                      2 1 blocks.2.att.time_mix_k tensor_3042 tensor_3044 0=0
BinaryOp         404                      2 1 tensor_3018 tensor_3044 tensor_3045 0=2
BinaryOp         405                      2 1 tensor_3010 tensor_3045 tensor_3046 0=0
Reshape          406                      1 1 tensor_3034 tensor_3047 0=512
MemoryData       407                      0 1 blocks.2.att.time_mix_v 0=512 21=0
BinaryOp         408                      2 1 blocks.2.att.time_mix_v tensor_3047 tensor_3049 0=0
BinaryOp         409                      2 1 tensor_3019 tensor_3049 tensor_3050 0=2
BinaryOp         410                      2 1 tensor_3011 tensor_3050 tensor_3051 0=0
Reshape          411                      1 1 tensor_3035 tensor_3052 0=512
MemoryData       412                      0 1 blocks.2.att.time_mix_r 0=512 21=0
BinaryOp         413                      2 1 blocks.2.att.time_mix_r tensor_3052 tensor_3054 0=0
BinaryOp         414                      2 1 tensor_3020 tensor_3054 tensor_3055 0=2
BinaryOp         415                      2 1 tensor_3012 tensor_3055 tensor_3056 0=0
Reshape          416                      1 1 tensor_3036 tensor_3057 0=512
MemoryData       417                      0 1 blocks.2.att.time_mix_g 0=512 21=0
BinaryOp         418                      2 1 blocks.2.att.time_mix_g tensor_3057 tensor_3059 0=0
BinaryOp         419                      2 1 tensor_3021 tensor_3059 tensor_3060 0=2
BinaryOp         420                      2 1 tensor_3013 tensor_3060 tensor_3061 0=0
Reshape          421                      1 1 tensor_3041 tensor_3062 0=0 1=1
Gemm             422                      1 1 tensor_3062 tensor_3064 4=0 5=1 6=1 7=0 8=64 9=512 10=-1
Reshape          423                      1 1 tensor_3064 tensor_3065 0=-1
TanH             424                      1 1 tensor_3065 tensor_3066
Reshape          425                      1 1 tensor_3066 tensor_3067 0=0 1=1
Gemm             426                      1 1 tensor_3067 tensor_3069 4=0 5=1 6=1 7=0 8=512 9=64 10=-1
Reshape          427                      1 1 tensor_3069 tensor_3070 0=-1
Reshape          428                      1 1 tensor_3070 tensor_3071 0=1 1=64 2=8
MemoryData       429                      0 1 blocks.2.att.time_decay 0=1 1=64 2=8 21=0
BinaryOp         430                      2 1 blocks.2.att.time_decay tensor_3071 tensor_3073 0=0
Exp              431                      1 1 tensor_3073 tensor_3074
BinaryOp         432                      1 1 tensor_3074 tensor_3075 0=7 1=1 2=0.000000e+00
Exp              433                      1 1 tensor_3075 tensor_3076
Reshape          434                      1 1 tensor_3056 tensor_3077 0=0 1=1
Gemm             435                      1 1 tensor_3077 tensor_3079 4=0 5=1 6=1 7=0 8=512 9=512 10=-1
Reshape          436                      1 1 tensor_3079 tensor_3080 0=-1
Reshape          437                      1 1 tensor_3080 tensor_3081 0=64 1=1 2=8
Reshape          438                      1 1 tensor_3046 tensor_3082 0=0 1=1
Gemm             439                      1 1 tensor_3082 tensor_3084 4=0 5=1 6=1 7=0 8=512 9=512 10=-1
Reshape          440                      1 1 tensor_3084 tensor_3085 0=-1
Reshape          441                      1 1 tensor_3085 tensor_3086 0=1 1=64 2=8
Reshape          442                      1 1 tensor_3051 tensor_3087 0=0 1=1
Gemm             443                      1 1 tensor_3087 tensor_3089 4=0 5=1 6=1 7=0 8=512 9=512 10=-1
Reshape          444                      1 1 tensor_3089 tensor_3090 0=-1
Reshape          445                      1 1 tensor_3090 tensor_3091 0=64 1=1 2=8
Reshape          446                      1 1 tensor_3061 tensor_3092 0=0 1=1
Gemm             447                      1 1 tensor_3092 tensor_3094 4=0 5=1 6=1 7=0 8=512 9=512 10=-1
Reshape          448                      1 1 tensor_3094 tensor_3095 0=-1
Swish            449                      1 1 tensor_3095 tensor_3096
MatMul           450                      2 1 tensor_3086 tensor_3091 tensor_3097 0=0
Split            451                      1 2 tensor_3097 tensor_3098 tensor_3099
Split            452                      1 2 state_2_1 tensor_3100 tensor_3101
MemoryData       453                      0 1 blocks.2.att.time_first 0=1 1=64 2=8 21=0
BinaryOp         454                      2 1 tensor_3098 blocks.2.att.time_first tensor_3103 0=2
BinaryOp         455                      2 1 tensor_3103 tensor_3100 tensor_3104 0=0
MatMul           456                      2 1 tensor_3081 tensor_3104 tensor_3105 0=0
BinaryOp         457                      2 1 tensor_3101 tensor_3076 tensor_3106 0=2
BinaryOp         458                      2 1 tensor_3099 tensor_3106 tensor_3107 0=0
Reshape          459                      1 1 tensor_3105 tensor_3108 0=512
GroupNorm        460                      1 1 tensor_3108 tensor_3109 0=8 1=512 2=1.000000e-05 3=1
Reshape          461                      1 1 tensor_3109 tensor_3110 0=512
BinaryOp         462                      2 1 tensor_3110 tensor_3096 tensor_3111 0=2
Reshape          463                      1 1 tensor_3111 tensor_3112 0=0 1=1
Gemm             464                      1 1 tensor_3112 tensor_3114 4=0 5=1 6=1 7=0 8=512 9=512 10=-1
Reshape          465                      1 1 tensor_3114 tensor_3115 0=-1
BinaryOp         466                      2 1 tensor_3004 tensor_3115 tensor_3116 0=0
Split            467                      1 1 tensor_3014 output_state_2_0
Split            468                      1 1 tensor_3107 output_state_2_1
Split            469                      1 2 tensor_3116 tensor_3119 tensor_3120
LayerNorm        470                      1 1 tensor_3119 tensor_3121 0=512 1=1.000000e-05 2=1
Split            471                      1 4 tensor_3121 tensor_3122 tensor_3123 tensor_3124 tensor_3125
BinaryOp         472                      2 1 state_2_2 tensor_3125 tensor_3126 0=1
Split            473                      1 2 tensor_3126 tensor_3127 tensor_3128
MemoryData       474                      0 1 blocks.2.ffn.time_mix_k 0=512 21=0
BinaryOp         475                      2 1 tensor_3127 blocks.2.ffn.time_mix_k tensor_3130 0=2
BinaryOp         476                      2 1 tensor_3122 tensor_3130 tensor_3131 0=0
MemoryData       477                      0 1 blocks.2.ffn.time_mix_r 0=512 21=0
BinaryOp         478                      2 1 tensor_3128 blocks.2.ffn.time_mix_r tensor_3133 0=2
BinaryOp         479                      2 1 tensor_3123 tensor_3133 tensor_3134 0=0
Reshape          480                      1 1 tensor_3134 tensor_3135 0=0 1=1
Gemm             481                      1 1 tensor_3135 tensor_3137 4=0 5=1 6=1 7=0 8=512 9=512 10=-1
Reshape          482                      1 1 tensor_3137 tensor_3138 0=-1
Sigmoid          483                      1 1 tensor_3138 tensor_3139
Reshape          484                      1 1 tensor_3131 tensor_3140 0=0 1=1
Gemm             485                      1 1 tensor_3140 tensor_3142 4=0 5=1 6=1 7=0 8=1792 9=512 10=-1
Reshape          486                      1 1 tensor_3142 tensor_3143 0=-1
ReLU             487                      1 1 tensor_3143 tensor_3144
BinaryOp         488                      2 1 tensor_3144 tensor_3144 tensor_3145 0=2
Reshape          489                      1 1 tensor_3145 tensor_3146 0=0 1=1
Gemm             490                      1 1 tensor_3146 tensor_3148 4=0 5=1 6=1 7=0 8=512 9=1792 10=-1
Reshape          491                      1 1 tensor_3148 tensor_3149 0=-1
BinaryOp         492                      2 1 tensor_3139 tensor_3149 tensor_3150 0=2
BinaryOp         493                      2 1 tensor_3120 tensor_3150 tensor_3151 0=0
Split            494                      1 1 tensor_3124 output_state_2_2
Split            495                      1 2 tensor_3151 tensor_3153 tensor_3154
LayerNorm        496                      1 1 tensor_3153 tensor_3155 0=512 1=1.000000e-05 2=1
Split            497                      1 3 tensor_3155 tensor_3156 tensor_3157 tensor_3158
Split            498                      1 6 tensor_3156 tensor_3159 tensor_3160 tensor_3161 tensor_3162 tensor_3163 tensor_3164
BinaryOp         499                      2 1 state_3_0 tensor_3157 tensor_3165 0=1
Split            500                      1 6 tensor_3165 tensor_3166 tensor_3167 tensor_3168 tensor_3169 tensor_3170 tensor_3171
MemoryData       501                      0 1 blocks.3.att.time_mix_x 0=512 21=0
BinaryOp         502                      2 1 tensor_3166 blocks.3.att.time_mix_x tensor_3173 0=2
BinaryOp         503                      2 1 tensor_3158 tensor_3173 tensor_3174 0=0
MemoryData       504                      0 1 blocks.3.att.time_mix_w1 0=160 1=512 21=0
MatMul           505                      2 1 tensor_3174 blocks.3.att.time_mix_w1 tensor_3176 0=0
TanH             506                      1 1 tensor_3176 tensor_3177
Reshape          507                      1 1 tensor_3177 tensor_3178 0=32 1=1 2=5
MemoryData       508                      0 1 blocks.3.att.time_mix_w2 0=512 1=32 2=5 21=0
MatMul           509                      2 1 tensor_3178 blocks.3.att.time_mix_w2 tensor_3180 0=0
Reshape          510                      1 1 tensor_3180 tensor_3181 0=512 1=5
Slice            511                      1 5 tensor_3181 tensor_3182 tensor_3183 tensor_3184 tensor_3185 tensor_3186 -23300=5,-233,-233,-233,-233,-233 1=0
Reshape          512                      1 1 tensor_3182 tensor_3187 0=512
MemoryData       513                      0 1 blocks.3.att.time_mix_w 0=512 21=0
BinaryOp         514                      2 1 blocks.3.att.time_mix_w tensor_3187 tensor_3189 0=0
BinaryOp         515                      2 1 tensor_3167 tensor_3189 tensor_3190 0=2
BinaryOp         516                      2 1 tensor_3159 tensor_3190 tensor_3191 0=0
Reshape          517                      1 1 tensor_3183 tensor_3192 0=512
MemoryData       518                      0 1 blocks.3.att.time_mix_k 0=512 21=0
BinaryOp         519                      2 1 blocks.3.att.time_mix_k tensor_3192 tensor_3194 0=0
BinaryOp         520                      2 1 tensor_3168 tensor_3194 tensor_3195 0=2
BinaryOp         521                      2 1 tensor_3160 tensor_3195 tensor_3196 0=0
Reshape          522                      1 1 tensor_3184 tensor_3197 0=512
MemoryData       523                      0 1 blocks.3.att.time_mix_v 0=512 21=0
BinaryOp         524                      2 1 blocks.3.att.time_mix_v tensor_3197 tensor_3199 0=0
BinaryOp         525                      2 1 tensor_3169 tensor_3199 tensor_3200 0=2
BinaryOp         526                      2 1 tensor_3161 tensor_3200 tensor_3201 0=0
Reshape          527                      1 1 tensor_3185 tensor_3202 0=512
MemoryData       528                      0 1 blocks.3.att.time_mix_r 0=512 21=0
BinaryOp         529                      2 1 blocks.3.att.time_mix_r tensor_3202 tensor_3204 0=0
BinaryOp         530                      2 1 tensor_3170 tensor_3204 tensor_3205 0=2
BinaryOp         531                      2 1 tensor_3162 tensor_3205 tensor_3206 0=0
Reshape          532                      1 1 tensor_3186 tensor_3207 0=512
MemoryData       533                      0 1 blocks.3.att.time_mix_g 0=512 21=0
BinaryOp         534                      2 1 blocks.3.att.time_mix_g tensor_3207 tensor_3209 0=0
BinaryOp         535                      2 1 tensor_3171 tensor_3209 tensor_3210 0=2
BinaryOp         536                      2 1 tensor_3163 tensor_3210 tensor_3211 0=0
Reshape          537                      1 1 tensor_3191 tensor_3212 0=0 1=1
Gemm             538                      1 1 tensor_3212 tensor_3214 4=0 5=1 6=1 7=0 8=64 9=512 10=-1
Reshape          539                      1 1 tensor_3214 tensor_3215 0=-1
TanH             540                      1 1 tensor_3215 tensor_3216
Reshape          541                      1 1 tensor_3216 tensor_3217 0=0 1=1
Gemm             542                      1 1 tensor_3217 tensor_3219 4=0 5=1 6=1 7=0 8=512 9=64 10=-1
Reshape          543                      1 1 tensor_3219 tensor_3220 0=-1
Reshape          544                      1 1 tensor_3220 tensor_3221 0=1 1=64 2=8
MemoryData       545                      0 1 blocks.3.att.time_decay 0=1 1=64 2=8 21=0
BinaryOp         546                      2 1 blocks.3.att.time_decay tensor_3221 tensor_3223 0=0
Exp              547                      1 1 tensor_3223 tensor_3224
BinaryOp         548                      1 1 tensor_3224 tensor_3225 0=7 1=1 2=0.000000e+00
Exp              549                      1 1 tensor_3225 tensor_3226
Reshape          550                      1 1 tensor_3206 tensor_3227 0=0 1=1
Gemm             551                      1 1 tensor_3227 tensor_3229 4=0 5=1 6=1 7=0 8=512 9=512 10=-1
Reshape          552                      1 1 tensor_3229 tensor_3230 0=-1
Reshape          553                      1 1 tensor_3230 tensor_3231 0=64 1=1 2=8
Reshape          554                      1 1 tensor_3196 tensor_3232 0=0 1=1
Gemm             555                      1 1 tensor_3232 tensor_3234 4=0 5=1 6=1 7=0 8=512 9=512 10=-1
Reshape          556                      1 1 tensor_3234 tensor_3235 0=-1
Reshape          557                      1 1 tensor_3235 tensor_3236 0=1 1=64 2=8
Reshape          558                      1 1 tensor_3201 tensor_3237 0=0 1=1
Gemm             559                      1 1 tensor_3237 tensor_3239 4=0 5=1 6=1 7=0 8=512 9=512 10=-1
Reshape          560                      1 1 tensor_3239 tensor_3240 0=-1
Reshape          561                      1 1 tensor_3240 tensor_3241 0=64 1=1 2=8
Reshape          562                      1 1 tensor_3211 tensor_3242 0=0 1=1
Gemm             563                      1 1 tensor_3242 tensor_3244 4=0 5=1 6=1 7=0 8=512 9=512 10=-1
Reshape          564                      1 1 tensor_3244 tensor_3245 0=-1
Swish            565                      1 1 tensor_3245 tensor_3246
MatMul           566                      2 1 tensor_3236 tensor_3241 tensor_3247 0=0
Split            567                      1 2 tensor_3247 tensor_3248 tensor_3249
Split            568                      1 2 state_3_1 tensor_3250 tensor_3251
MemoryData       569                      0 1 blocks.3.att.time_first 0=1 1=64 2=8 21=0
BinaryOp         570                      2 1 tensor_3248 blocks.3.att.time_first tensor_3253 0=2
BinaryOp         571                      2 1 tensor_3253 tensor_3250 tensor_3254 0=0
MatMul           572                      2 1 tensor_3231 tensor_3254 tensor_3255 0=0
BinaryOp         573                      2 1 tensor_3251 tensor_3226 tensor_3256 0=2
BinaryOp         574                      2 1 tensor_3249 tensor_3256 tensor_3257 0=0
Reshape          575                      1 1 tensor_3255 tensor_3258 0=512
GroupNorm        576                      1 1 tensor_3258 tensor_3259 0=8 1=512 2=1.000000e-05 3=1
Reshape          577                      1 1 tensor_3259 tensor_3260 0=512
BinaryOp         578                      2 1 tensor_3260 tensor_3246 tensor_3261 0=2
Reshape          579                      1 1 tensor_3261 tensor_3262 0=0 1=1
Gemm             580                      1 1 tensor_3262 tensor_3264 4=0 5=1 6=1 7=0 8=512 9=512 10=-1
Reshape          581                      1 1 tensor_3264 tensor_3265 0=-1
BinaryOp         582                      2 1 tensor_3154 tensor_3265 tensor_3266 0=0
Split            583                      1 1 tensor_3164 output_state_3_0
Split            584                      1 1 tensor_3257 output_state_3_1
Split            585                      1 2 tensor_3266 tensor_3269 tensor_3270
LayerNorm        586                      1 1 tensor_3269 tensor_3271 0=512 1=1.000000e-05 2=1
Split            587                      1 4 tensor_3271 tensor_3272 tensor_3273 tensor_3274 tensor_3275
BinaryOp         588                      2 1 state_3_2 tensor_3275 tensor_3276 0=1
Split            589                      1 2 tensor_3276 tensor_3277 tensor_3278
MemoryData       590                      0 1 blocks.3.ffn.time_mix_k 0=512 21=0
BinaryOp         591                      2 1 tensor_3277 blocks.3.ffn.time_mix_k tensor_3280 0=2
BinaryOp         592                      2 1 tensor_3272 tensor_3280 tensor_3281 0=0
MemoryData       593                      0 1 blocks.3.ffn.time_mix_r 0=512 21=0
BinaryOp         594                      2 1 tensor_3278 blocks.3.ffn.time_mix_r tensor_3283 0=2
BinaryOp         595                      2 1 tensor_3273 tensor_3283 tensor_3284 0=0
Reshape          596                      1 1 tensor_3284 tensor_3285 0=0 1=1
Gemm             597                      1 1 tensor_3285 tensor_3287 4=0 5=1 6=1 7=0 8=512 9=512 10=-1
Reshape          598                      1 1 tensor_3287 tensor_3288 0=-1
Sigmoid          599                      1 1 tensor_3288 tensor_3289
Reshape          600                      1 1 tensor_3281 tensor_3290 0=0 1=1
Gemm             601                      1 1 tensor_3290 tensor_3292 4=0 5=1 6=1 7=0 8=1792 9=512 10=-1
Reshape          602                      1 1 tensor_3292 tensor_3293 0=-1
ReLU             603                      1 1 tensor_3293 tensor_3294
BinaryOp         604                      2 1 tensor_3294 tensor_3294 tensor_3295 0=2
Reshape          605                      1 1 tensor_3295 tensor_3296 0=0 1=1
Gemm             606                      1 1 tensor_3296 tensor_3298 4=0 5=1 6=1 7=0 8=512 9=1792 10=-1
Reshape          607                      1 1 tensor_3298 tensor_3299 0=-1
BinaryOp         608                      2 1 tensor_3289 tensor_3299 tensor_3300 0=2
BinaryOp         609                      2 1 tensor_3270 tensor_3300 tensor_3301 0=0
Split            610                      1 1 tensor_3274 output_state_3_2
Split            611                      1 2 tensor_3301 tensor_3303 tensor_3304
LayerNorm        612                      1 1 tensor_3303 tensor_3305 0=512 1=1.000000e-05 2=1
Split            613                      1 3 tensor_3305 tensor_3306 tensor_3307 tensor_3308
Split            614                      1 6 tensor_3306 tensor_3309 tensor_3310 tensor_3311 tensor_3312 tensor_3313 tensor_3314
BinaryOp         615                      2 1 state_4_0 tensor_3307 tensor_3315 0=1
Split            616                      1 6 tensor_3315 tensor_3316 tensor_3317 tensor_3318 tensor_3319 tensor_3320 tensor_3321
MemoryData       617                      0 1 blocks.4.att.time_mix_x 0=512 21=0
BinaryOp         618                      2 1 tensor_3316 blocks.4.att.time_mix_x tensor_3323 0=2
BinaryOp         619                      2 1 tensor_3308 tensor_3323 tensor_3324 0=0
MemoryData       620                      0 1 blocks.4.att.time_mix_w1 0=160 1=512 21=0
MatMul           621                      2 1 tensor_3324 blocks.4.att.time_mix_w1 tensor_3326 0=0
TanH             622                      1 1 tensor_3326 tensor_3327
Reshape          623                      1 1 tensor_3327 tensor_3328 0=32 1=1 2=5
MemoryData       624                      0 1 blocks.4.att.time_mix_w2 0=512 1=32 2=5 21=0
MatMul           625                      2 1 tensor_3328 blocks.4.att.time_mix_w2 tensor_3330 0=0
Reshape          626                      1 1 tensor_3330 tensor_3331 0=512 1=5
Slice            627                      1 5 tensor_3331 tensor_3332 tensor_3333 tensor_3334 tensor_3335 tensor_3336 -23300=5,-233,-233,-233,-233,-233 1=0
Reshape          628                      1 1 tensor_3332 tensor_3337 0=512
MemoryData       629                      0 1 blocks.4.att.time_mix_w 0=512 21=0
BinaryOp         630                      2 1 blocks.4.att.time_mix_w tensor_3337 tensor_3339 0=0
BinaryOp         631                      2 1 tensor_3317 tensor_3339 tensor_3340 0=2
BinaryOp         632                      2 1 tensor_3309 tensor_3340 tensor_3341 0=0
Reshape          633                      1 1 tensor_3333 tensor_3342 0=512
MemoryData       634                      0 1 blocks.4.att.time_mix_k 0=512 21=0
BinaryOp         635                      2 1 blocks.4.att.time_mix_k tensor_3342 tensor_3344 0=0
BinaryOp         636                      2 1 tensor_3318 tensor_3344 tensor_3345 0=2
BinaryOp         637                      2 1 tensor_3310 tensor_3345 tensor_3346 0=0
Reshape          638                      1 1 tensor_3334 tensor_3347 0=512
MemoryData       639                      0 1 blocks.4.att.time_mix_v 0=512 21=0
BinaryOp         640                      2 1 blocks.4.att.time_mix_v tensor_3347 tensor_3349 0=0
BinaryOp         641                      2 1 tensor_3319 tensor_3349 tensor_3350 0=2
BinaryOp         642                      2 1 tensor_3311 tensor_3350 tensor_3351 0=0
Reshape          643                      1 1 tensor_3335 tensor_3352 0=512
MemoryData       644                      0 1 blocks.4.att.time_mix_r 0=512 21=0
BinaryOp         645                      2 1 blocks.4.att.time_mix_r tensor_3352 tensor_3354 0=0
BinaryOp         646                      2 1 tensor_3320 tensor_3354 tensor_3355 0=2
BinaryOp         647                      2 1 tensor_3312 tensor_3355 tensor_3356 0=0
Reshape          648                      1 1 tensor_3336 tensor_3357 0=512
MemoryData       649                      0 1 blocks.4.att.time_mix_g 0=512 21=0
BinaryOp         650                      2 1 blocks.4.att.time_mix_g tensor_3357 tensor_3359 0=0
BinaryOp         651                      2 1 tensor_3321 tensor_3359 tensor_3360 0=2
BinaryOp         652                      2 1 tensor_3313 tensor_3360 tensor_3361 0=0
Reshape          653                      1 1 tensor_3341 tensor_3362 0=0 1=1
Gemm             654                      1 1 tensor_3362 tensor_3364 4=0 5=1 6=1 7=0 8=64 9=512 10=-1
Reshape          655                      1 1 tensor_3364 tensor_3365 0=-1
TanH             656                      1 1 tensor_3365 tensor_3366
Reshape          657                      1 1 tensor_3366 tensor_3367 0=0 1=1
Gemm             658                      1 1 tensor_3367 tensor_3369 4=0 5=1 6=1 7=0 8=512 9=64 10=-1
Reshape          659                      1 1 tensor_3369 tensor_3370 0=-1
Reshape          660                      1 1 tensor_3370 tensor_3371 0=1 1=64 2=8
MemoryData       661                      0 1 blocks.4.att.time_decay 0=1 1=64 2=8 21=0
BinaryOp         662                      2 1 blocks.4.att.time_decay tensor_3371 tensor_3373 0=0
Exp              663                      1 1 tensor_3373 tensor_3374
BinaryOp         664                      1 1 tensor_3374 tensor_3375 0=7 1=1 2=0.000000e+00
Exp              665                      1 1 tensor_3375 tensor_3376
Reshape          666                      1 1 tensor_3356 tensor_3377 0=0 1=1
Gemm             667                      1 1 tensor_3377 tensor_3379 4=0 5=1 6=1 7=0 8=512 9=512 10=-1
Reshape          668                      1 1 tensor_3379 tensor_3380 0=-1
Reshape          669                      1 1 tensor_3380 tensor_3381 0=64 1=1 2=8
Reshape          670                      1 1 tensor_3346 tensor_3382 0=0 1=1
Gemm             671                      1 1 tensor_3382 tensor_3384 4=0 5=1 6=1 7=0 8=512 9=512 10=-1
Reshape          672                      1 1 tensor_3384 tensor_3385 0=-1
Reshape          673                      1 1 tensor_3385 tensor_3386 0=1 1=64 2=8
Reshape          674                      1 1 tensor_3351 tensor_3387 0=0 1=1
Gemm             675                      1 1 tensor_3387 tensor_3389 4=0 5=1 6=1 7=0 8=512 9=512 10=-1
Reshape          676                      1 1 tensor_3389 tensor_3390 0=-1
Reshape          677                      1 1 tensor_3390 tensor_3391 0=64 1=1 2=8
Reshape          678                      1 1 tensor_3361 tensor_3392 0=0 1=1
Gemm             679                      1 1 tensor_3392 tensor_3394 4=0 5=1 6=1 7=0 8=512 9=512 10=-1
Reshape          680                      1 1 tensor_3394 tensor_3395 0=-1
Swish            681                      1 1 tensor_3395 tensor_3396
MatMul           682                      2 1 tensor_3386 tensor_3391 tensor_3397 0=0
Split            683                      1 2 tensor_3397 tensor_3398 tensor_3399
Split            684                      1 2 state_4_1 tensor_3400 tensor_3401
MemoryData       685                      0 1 blocks.4.att.time_first 0=1 1=64 2=8 21=0
BinaryOp         686                      2 1 tensor_3398 blocks.4.att.time_first tensor_3403 0=2
BinaryOp         687                      2 1 tensor_3403 tensor_3400 tensor_3404 0=0
MatMul           688                      2 1 tensor_3381 tensor_3404 tensor_3405 0=0
BinaryOp         689                      2 1 tensor_3401 tensor_3376 tensor_3406 0=2
BinaryOp         690                      2 1 tensor_3399 tensor_3406 tensor_3407 0=0
Reshape          691                      1 1 tensor_3405 tensor_3408 0=512
GroupNorm        692                      1 1 tensor_3408 tensor_3409 0=8 1=512 2=1.000000e-05 3=1
Reshape          693                      1 1 tensor_3409 tensor_3410 0=512
BinaryOp         694                      2 1 tensor_3410 tensor_3396 tensor_3411 0=2
Reshape          695                      1 1 tensor_3411 tensor_3412 0=0 1=1
Gemm             696                      1 1 tensor_3412 tensor_3414 4=0 5=1 6=1 7=0 8=512 9=512 10=-1
Reshape          697                      1 1 tensor_3414 tensor_3415 0=-1
BinaryOp         698                      2 1 tensor_3304 tensor_3415 tensor_3416 0=0
Split            699                      1 1 tensor_3314 output_state_4_0
Split            700                      1 1 tensor_3407 output_state_4_1
Split            701                      1 2 tensor_3416 tensor_3419 tensor_3420
LayerNorm        702                      1 1 tensor_3419 tensor_3421 0=512 1=1.000000e-05 2=1
Split            703                      1 4 tensor_3421 tensor_3422 tensor_3423 tensor_3424 tensor_3425
BinaryOp         704                      2 1 state_4_2 tensor_3425 tensor_3426 0=1
Split            705                      1 2 tensor_3426 tensor_3427 tensor_3428
MemoryData       706                      0 1 blocks.4.ffn.time_mix_k 0=512 21=0
BinaryOp         707                      2 1 tensor_3427 blocks.4.ffn.time_mix_k tensor_3430 0=2
BinaryOp         708                      2 1 tensor_3422 tensor_3430 tensor_3431 0=0
MemoryData       709                      0 1 blocks.4.ffn.time_mix_r 0=512 21=0
BinaryOp         710                      2 1 tensor_3428 blocks.4.ffn.time_mix_r tensor_3433 0=2
BinaryOp         711                      2 1 tensor_3423 tensor_3433 tensor_3434 0=0
Reshape          712                      1 1 tensor_3434 tensor_3435 0=0 1=1
Gemm             713                      1 1 tensor_3435 tensor_3437 4=0 5=1 6=1 7=0 8=512 9=512 10=-1
Reshape          714                      1 1 tensor_3437 tensor_3438 0=-1
Sigmoid          715                      1 1 tensor_3438 tensor_3439
Reshape          716                      1 1 tensor_3431 tensor_3440 0=0 1=1
Gemm             717                      1 1 tensor_3440 tensor_3442 4=0 5=1 6=1 7=0 8=1792 9=512 10=-1
Reshape          718                      1 1 tensor_3442 tensor_3443 0=-1
ReLU             719                      1 1 tensor_3443 tensor_3444
BinaryOp         720                      2 1 tensor_3444 tensor_3444 tensor_3445 0=2
Reshape          721                      1 1 tensor_3445 tensor_3446 0=0 1=1
Gemm             722                      1 1 tensor_3446 tensor_3448 4=0 5=1 6=1 7=0 8=512 9=1792 10=-1
Reshape          723                      1 1 tensor_3448 tensor_3449 0=-1
BinaryOp         724                      2 1 tensor_3439 tensor_3449 tensor_3450 0=2
BinaryOp         725                      2 1 tensor_3420 tensor_3450 tensor_3451 0=0
Split            726                      1 1 tensor_3424 output_state_4_2
Split            727                      1 2 tensor_3451 tensor_3453 tensor_3454
LayerNorm        728                      1 1 tensor_3453 tensor_3455 0=512 1=1.000000e-05 2=1
Split            729                      1 3 tensor_3455 tensor_3456 tensor_3457 tensor_3458
Split            730                      1 6 tensor_3456 tensor_3459 tensor_3460 tensor_3461 tensor_3462 tensor_3463 tensor_3464
BinaryOp         731                      2 1 state_5_0 tensor_3457 tensor_3465 0=1
Split            732                      1 6 tensor_3465 tensor_3466 tensor_3467 tensor_3468 tensor_3469 tensor_3470 tensor_3471
MemoryData       733                      0 1 blocks.5.att.time_mix_x 0=512 21=0
BinaryOp         734                      2 1 tensor_3466 blocks.5.att.time_mix_x tensor_3473 0=2
BinaryOp         735                      2 1 tensor_3458 tensor_3473 tensor_3474 0=0
MemoryData       736                      0 1 blocks.5.att.time_mix_w1 0=160 1=512 21=0
MatMul           737                      2 1 tensor_3474 blocks.5.att.time_mix_w1 tensor_3476 0=0
TanH             738                      1 1 tensor_3476 tensor_3477
Reshape          739                      1 1 tensor_3477 tensor_3478 0=32 1=1 2=5
MemoryData       740                      0 1 blocks.5.att.time_mix_w2 0=512 1=32 2=5 21=0
MatMul           741                      2 1 tensor_3478 blocks.5.att.time_mix_w2 tensor_3480 0=0
Reshape          742                      1 1 tensor_3480 tensor_3481 0=512 1=5
Slice            743                      1 5 tensor_3481 tensor_3482 tensor_3483 tensor_3484 tensor_3485 tensor_3486 -23300=5,-233,-233,-233,-233,-233 1=0
Reshape          744                      1 1 tensor_3482 tensor_3487 0=512
MemoryData       745                      0 1 blocks.5.att.time_mix_w 0=512 21=0
BinaryOp         746                      2 1 blocks.5.att.time_mix_w tensor_3487 tensor_3489 0=0
BinaryOp         747                      2 1 tensor_3467 tensor_3489 tensor_3490 0=2
BinaryOp         748                      2 1 tensor_3459 tensor_3490 tensor_3491 0=0
Reshape          749                      1 1 tensor_3483 tensor_3492 0=512
MemoryData       750                      0 1 blocks.5.att.time_mix_k 0=512 21=0
BinaryOp         751                      2 1 blocks.5.att.time_mix_k tensor_3492 tensor_3494 0=0
BinaryOp         752                      2 1 tensor_3468 tensor_3494 tensor_3495 0=2
BinaryOp         753                      2 1 tensor_3460 tensor_3495 tensor_3496 0=0
Reshape          754                      1 1 tensor_3484 tensor_3497 0=512
MemoryData       755                      0 1 blocks.5.att.time_mix_v 0=512 21=0
BinaryOp         756                      2 1 blocks.5.att.time_mix_v tensor_3497 tensor_3499 0=0
BinaryOp         757                      2 1 tensor_3469 tensor_3499 tensor_3500 0=2
BinaryOp         758                      2 1 tensor_3461 tensor_3500 tensor_3501 0=0
Reshape          759                      1 1 tensor_3485 tensor_3502 0=512
MemoryData       760                      0 1 blocks.5.att.time_mix_r 0=512 21=0
BinaryOp         761                      2 1 blocks.5.att.time_mix_r tensor_3502 tensor_3504 0=0
BinaryOp         762                      2 1 tensor_3470 tensor_3504 tensor_3505 0=2
BinaryOp         763                      2 1 tensor_3462 tensor_3505 tensor_3506 0=0
Reshape          764                      1 1 tensor_3486 tensor_3507 0=512
MemoryData       765                      0 1 blocks.5.att.time_mix_g 0=512 21=0
BinaryOp         766                      2 1 blocks.5.att.time_mix_g tensor_3507 tensor_3509 0=0
BinaryOp         767                      2 1 tensor_3471 tensor_3509 tensor_3510 0=2
BinaryOp         768                      2 1 tensor_3463 tensor_3510 tensor_3511 0=0
Reshape          769                      1 1 tensor_3491 tensor_3512 0=0 1=1
Gemm             770                      1 1 tensor_3512 tensor_3514 4=0 5=1 6=1 7=0 8=64 9=512 10=-1
Reshape          771                      1 1 tensor_3514 tensor_3515 0=-1
TanH             772                      1 1 tensor_3515 tensor_3516
Reshape          773                      1 1 tensor_3516 tensor_3517 0=0 1=1
Gemm             774                      1 1 tensor_3517 tensor_3519 4=0 5=1 6=1 7=0 8=512 9=64 10=-1
Reshape          775                      1 1 tensor_3519 tensor_3520 0=-1
Reshape          776                      1 1 tensor_3520 tensor_3521 0=1 1=64 2=8
MemoryData       777                      0 1 blocks.5.att.time_decay 0=1 1=64 2=8 21=0
BinaryOp         778                      2 1 blocks.5.att.time_decay tensor_3521 tensor_3523 0=0
Exp              779                      1 1 tensor_3523 tensor_3524
BinaryOp         780                      1 1 tensor_3524 tensor_3525 0=7 1=1 2=0.000000e+00
Exp              781                      1 1 tensor_3525 tensor_3526
Reshape          782                      1 1 tensor_3506 tensor_3527 0=0 1=1
Gemm             783                      1 1 tensor_3527 tensor_3529 4=0 5=1 6=1 7=0 8=512 9=512 10=-1
Reshape          784                      1 1 tensor_3529 tensor_3530 0=-1
Reshape          785                      1 1 tensor_3530 tensor_3531 0=64 1=1 2=8
Reshape          786                      1 1 tensor_3496 tensor_3532 0=0 1=1
Gemm             787                      1 1 tensor_3532 tensor_3534 4=0 5=1 6=1 7=0 8=512 9=512 10=-1
Reshape          788                      1 1 tensor_3534 tensor_3535 0=-1
Reshape          789                      1 1 tensor_3535 tensor_3536 0=1 1=64 2=8
Reshape          790                      1 1 tensor_3501 tensor_3537 0=0 1=1
Gemm             791                      1 1 tensor_3537 tensor_3539 4=0 5=1 6=1 7=0 8=512 9=512 10=-1
Reshape          792                      1 1 tensor_3539 tensor_3540 0=-1
Reshape          793                      1 1 tensor_3540 tensor_3541 0=64 1=1 2=8
Reshape          794                      1 1 tensor_3511 tensor_3542 0=0 1=1
Gemm             795                      1 1 tensor_3542 tensor_3544 4=0 5=1 6=1 7=0 8=512 9=512 10=-1
Reshape          796                      1 1 tensor_3544 tensor_3545 0=-1
Swish            797                      1 1 tensor_3545 tensor_3546
MatMul           798                      2 1 tensor_3536 tensor_3541 tensor_3547 0=0
Split            799                      1 2 tensor_3547 tensor_3548 tensor_3549
Split            800                      1 2 state_5_1 tensor_3550 tensor_3551
MemoryData       801                      0 1 blocks.5.att.time_first 0=1 1=64 2=8 21=0
BinaryOp         802                      2 1 tensor_3548 blocks.5.att.time_first tensor_3553 0=2
BinaryOp         803                      2 1 tensor_3553 tensor_3550 tensor_3554 0=0
MatMul           804                      2 1 tensor_3531 tensor_3554 tensor_3555 0=0
BinaryOp         805                      2 1 tensor_3551 tensor_3526 tensor_3556 0=2
BinaryOp         806                      2 1 tensor_3549 tensor_3556 tensor_3557 0=0
Reshape          807                      1 1 tensor_3555 tensor_3558 0=512
GroupNorm        808                      1 1 tensor_3558 tensor_3559 0=8 1=512 2=1.000000e-05 3=1
Reshape          809                      1 1 tensor_3559 tensor_3560 0=512
BinaryOp         810                      2 1 tensor_3560 tensor_3546 tensor_3561 0=2
Reshape          811                      1 1 tensor_3561 tensor_3562 0=0 1=1
Gemm             812                      1 1 tensor_3562 tensor_3564 4=0 5=1 6=1 7=0 8=512 9=512 10=-1
Reshape          813                      1 1 tensor_3564 tensor_3565 0=-1
BinaryOp         814                      2 1 tensor_3454 tensor_3565 tensor_3566 0=0
Split            815                      1 1 tensor_3464 output_state_5_0
Split            816                      1 1 tensor_3557 output_state_5_1
Split            817                      1 2 tensor_3566 tensor_3569 tensor_3570
LayerNorm        818                      1 1 tensor_3569 tensor_3571 0=512 1=1.000000e-05 2=1
Split            819                      1 4 tensor_3571 tensor_3572 tensor_3573 tensor_3574 tensor_3575
BinaryOp         820                      2 1 state_5_2 tensor_3575 tensor_3576 0=1
Split            821                      1 2 tensor_3576 tensor_3577 tensor_3578
MemoryData       822                      0 1 blocks.5.ffn.time_mix_k 0=512 21=0
BinaryOp         823                      2 1 tensor_3577 blocks.5.ffn.time_mix_k tensor_3580 0=2
BinaryOp         824                      2 1 tensor_3572 tensor_3580 tensor_3581 0=0
MemoryData       825                      0 1 blocks.5.ffn.time_mix_r 0=512 21=0
BinaryOp         826                      2 1 tensor_3578 blocks.5.ffn.time_mix_r tensor_3583 0=2
BinaryOp         827                      2 1 tensor_3573 tensor_3583 tensor_3584 0=0
Reshape          828                      1 1 tensor_3584 tensor_3585 0=0 1=1
Gemm             829                      1 1 tensor_3585 tensor_3587 4=0 5=1 6=1 7=0 8=512 9=512 10=-1
Reshape          830                      1 1 tensor_3587 tensor_3588 0=-1
Sigmoid          831                      1 1 tensor_3588 tensor_3589
Reshape          832                      1 1 tensor_3581 tensor_3590 0=0 1=1
Gemm             833                      1 1 tensor_3590 tensor_3592 4=0 5=1 6=1 7=0 8=1792 9=512 10=-1
Reshape          834                      1 1 tensor_3592 tensor_3593 0=-1
ReLU             835                      1 1 tensor_3593 tensor_3594
BinaryOp         836                      2 1 tensor_3594 tensor_3594 tensor_3595 0=2
Reshape          837                      1 1 tensor_3595 tensor_3596 0=0 1=1
Gemm             838                      1 1 tensor_3596 tensor_3598 4=0 5=1 6=1 7=0 8=512 9=1792 10=-1
Reshape          839                      1 1 tensor_3598 tensor_3599 0=-1
BinaryOp         840                      2 1 tensor_3589 tensor_3599 tensor_3600 0=2
BinaryOp         841                      2 1 tensor_3570 tensor_3600 tensor_3601 0=0
Split            842                      1 1 tensor_3574 output_state_5_2
Split            843                      1 2 tensor_3601 tensor_3603 tensor_3604
LayerNorm        844                      1 1 tensor_3603 tensor_3605 0=512 1=1.000000e-05 2=1
Split            845                      1 3 tensor_3605 tensor_3606 tensor_3607 tensor_3608
Split            846                      1 6 tensor_3606 tensor_3609 tensor_3610 tensor_3611 tensor_3612 tensor_3613 tensor_3614
BinaryOp         847                      2 1 state_6_0 tensor_3607 tensor_3615 0=1
Split            848                      1 6 tensor_3615 tensor_3616 tensor_3617 tensor_3618 tensor_3619 tensor_3620 tensor_3621
MemoryData       849                      0 1 blocks.6.att.time_mix_x 0=512 21=0
BinaryOp         850                      2 1 tensor_3616 blocks.6.att.time_mix_x tensor_3623 0=2
BinaryOp         851                      2 1 tensor_3608 tensor_3623 tensor_3624 0=0
MemoryData       852                      0 1 blocks.6.att.time_mix_w1 0=160 1=512 21=0
MatMul           853                      2 1 tensor_3624 blocks.6.att.time_mix_w1 tensor_3626 0=0
TanH             854                      1 1 tensor_3626 tensor_3627
Reshape          855                      1 1 tensor_3627 tensor_3628 0=32 1=1 2=5
MemoryData       856                      0 1 blocks.6.att.time_mix_w2 0=512 1=32 2=5 21=0
MatMul           857                      2 1 tensor_3628 blocks.6.att.time_mix_w2 tensor_3630 0=0
Reshape          858                      1 1 tensor_3630 tensor_3631 0=512 1=5
Slice            859                      1 5 tensor_3631 tensor_3632 tensor_3633 tensor_3634 tensor_3635 tensor_3636 -23300=5,-233,-233,-233,-233,-233 1=0
Reshape          860                      1 1 tensor_3632 tensor_3637 0=512
MemoryData       861                      0 1 blocks.6.att.time_mix_w 0=512 21=0
BinaryOp         862                      2 1 blocks.6.att.time_mix_w tensor_3637 tensor_3639 0=0
BinaryOp         863                      2 1 tensor_3617 tensor_3639 tensor_3640 0=2
BinaryOp         864                      2 1 tensor_3609 tensor_3640 tensor_3641 0=0
Reshape          865                      1 1 tensor_3633 tensor_3642 0=512
MemoryData       866                      0 1 blocks.6.att.time_mix_k 0=512 21=0
BinaryOp         867                      2 1 blocks.6.att.time_mix_k tensor_3642 tensor_3644 0=0
BinaryOp         868                      2 1 tensor_3618 tensor_3644 tensor_3645 0=2
BinaryOp         869                      2 1 tensor_3610 tensor_3645 tensor_3646 0=0
Reshape          870                      1 1 tensor_3634 tensor_3647 0=512
MemoryData       871                      0 1 blocks.6.att.time_mix_v 0=512 21=0
BinaryOp         872                      2 1 blocks.6.att.time_mix_v tensor_3647 tensor_3649 0=0
BinaryOp         873                      2 1 tensor_3619 tensor_3649 tensor_3650 0=2
BinaryOp         874                      2 1 tensor_3611 tensor_3650 tensor_3651 0=0
Reshape          875                      1 1 tensor_3635 tensor_3652 0=512
MemoryData       876                      0 1 blocks.6.att.time_mix_r 0=512 21=0
BinaryOp         877                      2 1 blocks.6.att.time_mix_r tensor_3652 tensor_3654 0=0
BinaryOp         878                      2 1 tensor_3620 tensor_3654 tensor_3655 0=2
BinaryOp         879                      2 1 tensor_3612 tensor_3655 tensor_3656 0=0
Reshape          880                      1 1 tensor_3636 tensor_3657 0=512
MemoryData       881                      0 1 blocks.6.att.time_mix_g 0=512 21=0
BinaryOp         882                      2 1 blocks.6.att.time_mix_g tensor_3657 tensor_3659 0=0
BinaryOp         883                      2 1 tensor_3621 tensor_3659 tensor_3660 0=2
BinaryOp         884                      2 1 tensor_3613 tensor_3660 tensor_3661 0=0
Reshape          885                      1 1 tensor_3641 tensor_3662 0=0 1=1
Gemm             886                      1 1 tensor_3662 tensor_3664 4=0 5=1 6=1 7=0 8=64 9=512 10=-1
Reshape          887                      1 1 tensor_3664 tensor_3665 0=-1
TanH             888                      1 1 tensor_3665 tensor_3666
Reshape          889                      1 1 tensor_3666 tensor_3667 0=0 1=1
Gemm             890                      1 1 tensor_3667 tensor_3669 4=0 5=1 6=1 7=0 8=512 9=64 10=-1
Reshape          891                      1 1 tensor_3669 tensor_3670 0=-1
Reshape          892                      1 1 tensor_3670 tensor_3671 0=1 1=64 2=8
MemoryData       893                      0 1 blocks.6.att.time_decay 0=1 1=64 2=8 21=0
BinaryOp         894                      2 1 blocks.6.att.time_decay tensor_3671 tensor_3673 0=0
Exp              895                      1 1 tensor_3673 tensor_3674
BinaryOp         896                      1 1 tensor_3674 tensor_3675 0=7 1=1 2=0.000000e+00
Exp              897                      1 1 tensor_3675 tensor_3676
Reshape          898                      1 1 tensor_3656 tensor_3677 0=0 1=1
Gemm             899                      1 1 tensor_3677 tensor_3679 4=0 5=1 6=1 7=0 8=512 9=512 10=-1
Reshape          900                      1 1 tensor_3679 tensor_3680 0=-1
Reshape          901                      1 1 tensor_3680 tensor_3681 0=64 1=1 2=8
Reshape          902                      1 1 tensor_3646 tensor_3682 0=0 1=1
Gemm             903                      1 1 tensor_3682 tensor_3684 4=0 5=1 6=1 7=0 8=512 9=512 10=-1
Reshape          904                      1 1 tensor_3684 tensor_3685 0=-1
Reshape          905                      1 1 tensor_3685 tensor_3686 0=1 1=64 2=8
Reshape          906                      1 1 tensor_3651 tensor_3687 0=0 1=1
Gemm             907                      1 1 tensor_3687 tensor_3689 4=0 5=1 6=1 7=0 8=512 9=512 10=-1
Reshape          908                      1 1 tensor_3689 tensor_3690 0=-1
Reshape          909                      1 1 tensor_3690 tensor_3691 0=64 1=1 2=8
Reshape          910                      1 1 tensor_3661 tensor_3692 0=0 1=1
Gemm             911                      1 1 tensor_3692 tensor_3694 4=0 5=1 6=1 7=0 8=512 9=512 10=-1
Reshape          912                      1 1 tensor_3694 tensor_3695 0=-1
Swish            913                      1 1 tensor_3695 tensor_3696
MatMul           914                      2 1 tensor_3686 tensor_3691 tensor_3697 0=0
Split            915                      1 2 tensor_3697 tensor_3698 tensor_3699
Split            916                      1 2 state_6_1 tensor_3700 tensor_3701
MemoryData       917                      0 1 blocks.6.att.time_first 0=1 1=64 2=8 21=0
BinaryOp         918                      2 1 tensor_3698 blocks.6.att.time_first tensor_3703 0=2
BinaryOp         919                      2 1 tensor_3703 tensor_3700 tensor_3704 0=0
MatMul           920                      2 1 tensor_3681 tensor_3704 tensor_3705 0=0
BinaryOp         921                      2 1 tensor_3701 tensor_3676 tensor_3706 0=2
BinaryOp         922                      2 1 tensor_3699 tensor_3706 tensor_3707 0=0
Reshape          923                      1 1 tensor_3705 tensor_3708 0=512
GroupNorm        924                      1 1 tensor_3708 tensor_3709 0=8 1=512 2=1.000000e-05 3=1
Reshape          925                      1 1 tensor_3709 tensor_3710 0=512
BinaryOp         926                      2 1 tensor_3710 tensor_3696 tensor_3711 0=2
Reshape          927                      1 1 tensor_3711 tensor_3712 0=0 1=1
Gemm             928                      1 1 tensor_3712 tensor_3714 4=0 5=1 6=1 7=0 8=512 9=512 10=-1
Reshape          929                      1 1 tensor_3714 tensor_3715 0=-1
BinaryOp         930                      2 1 tensor_3604 tensor_3715 tensor_3716 0=0
Split            931                      1 1 tensor_3614 output_state_6_0
Split            932                      1 1 tensor_3707 output_state_6_1
Split            933                      1 2 tensor_3716 tensor_3719 tensor_3720
LayerNorm        934                      1 1 tensor_3719 tensor_3721 0=512 1=1.000000e-05 2=1
Split            935                      1 4 tensor_3721 tensor_3722 tensor_3723 tensor_3724 tensor_3725
BinaryOp         936                      2 1 state_6_2 tensor_3725 tensor_3726 0=1
Split            937                      1 2 tensor_3726 tensor_3727 tensor_3728
MemoryData       938                      0 1 blocks.6.ffn.time_mix_k 0=512 21=0
BinaryOp         939                      2 1 tensor_3727 blocks.6.ffn.time_mix_k tensor_3730 0=2
BinaryOp         940                      2 1 tensor_3722 tensor_3730 tensor_3731 0=0
MemoryData       941                      0 1 blocks.6.ffn.time_mix_r 0=512 21=0
BinaryOp         942                      2 1 tensor_3728 blocks.6.ffn.time_mix_r tensor_3733 0=2
BinaryOp         943                      2 1 tensor_3723 tensor_3733 tensor_3734 0=0
Reshape          944                      1 1 tensor_3734 tensor_3735 0=0 1=1
Gemm             945                      1 1 tensor_3735 tensor_3737 4=0 5=1 6=1 7=0 8=512 9=512 10=-1
Reshape          946                      1 1 tensor_3737 tensor_3738 0=-1
Sigmoid          947                      1 1 tensor_3738 tensor_3739
Reshape          948                      1 1 tensor_3731 tensor_3740 0=0 1=1
Gemm             949                      1 1 tensor_3740 tensor_3742 4=0 5=1 6=1 7=0 8=1792 9=512 10=-1
Reshape          950                      1 1 tensor_3742 tensor_3743 0=-1
ReLU             951                      1 1 tensor_3743 tensor_3744
BinaryOp         952                      2 1 tensor_3744 tensor_3744 tensor_3745 0=2
Reshape          953                      1 1 tensor_3745 tensor_3746 0=0 1=1
Gemm             954                      1 1 tensor_3746 tensor_3748 4=0 5=1 6=1 7=0 8=512 9=1792 10=-1
Reshape          955                      1 1 tensor_3748 tensor_3749 0=-1
BinaryOp         956                      2 1 tensor_3739 tensor_3749 tensor_3750 0=2
BinaryOp         957                      2 1 tensor_3720 tensor_3750 tensor_3751 0=0
Split            958                      1 1 tensor_3724 output_state_6_2
Split            959                      1 2 tensor_3751 tensor_3753 tensor_3754
LayerNorm        960                      1 1 tensor_3753 tensor_3755 0=512 1=1.000000e-05 2=1
Split            961                      1 3 tensor_3755 tensor_3756 tensor_3757 tensor_3758
Split            962                      1 6 tensor_3756 tensor_3759 tensor_3760 tensor_3761 tensor_3762 tensor_3763 tensor_3764
BinaryOp         963                      2 1 state_7_0 tensor_3757 tensor_3765 0=1
Split            964                      1 6 tensor_3765 tensor_3766 tensor_3767 tensor_3768 tensor_3769 tensor_3770 tensor_3771
MemoryData       965                      0 1 blocks.7.att.time_mix_x 0=512 21=0
BinaryOp         966                      2 1 tensor_3766 blocks.7.att.time_mix_x tensor_3773 0=2
BinaryOp         967                      2 1 tensor_3758 tensor_3773 tensor_3774 0=0
MemoryData       968                      0 1 blocks.7.att.time_mix_w1 0=160 1=512 21=0
MatMul           969                      2 1 tensor_3774 blocks.7.att.time_mix_w1 tensor_3776 0=0
TanH             970                      1 1 tensor_3776 tensor_3777
Reshape          971                      1 1 tensor_3777 tensor_3778 0=32 1=1 2=5
MemoryData       972                      0 1 blocks.7.att.time_mix_w2 0=512 1=32 2=5 21=0
MatMul           973                      2 1 tensor_3778 blocks.7.att.time_mix_w2 tensor_3780 0=0
Reshape          974                      1 1 tensor_3780 tensor_3781 0=512 1=5
Slice            975                      1 5 tensor_3781 tensor_3782 tensor_3783 tensor_3784 tensor_3785 tensor_3786 -23300=5,-233,-233,-233,-233,-233 1=0
Reshape          976                      1 1 tensor_3782 tensor_3787 0=512
MemoryData       977                      0 1 blocks.7.att.time_mix_w 0=512 21=0
BinaryOp         978                      2 1 blocks.7.att.time_mix_w tensor_3787 tensor_3789 0=0
BinaryOp         979                      2 1 tensor_3767 tensor_3789 tensor_3790 0=2
BinaryOp         980                      2 1 tensor_3759 tensor_3790 tensor_3791 0=0
Reshape          981                      1 1 tensor_3783 tensor_3792 0=512
MemoryData       982                      0 1 blocks.7.att.time_mix_k 0=512 21=0
BinaryOp         983                      2 1 blocks.7.att.time_mix_k tensor_3792 tensor_3794 0=0
BinaryOp         984                      2 1 tensor_3768 tensor_3794 tensor_3795 0=2
BinaryOp         985                      2 1 tensor_3760 tensor_3795 tensor_3796 0=0
Reshape          986                      1 1 tensor_3784 tensor_3797 0=512
MemoryData       987                      0 1 blocks.7.att.time_mix_v 0=512 21=0
BinaryOp         988                      2 1 blocks.7.att.time_mix_v tensor_3797 tensor_3799 0=0
BinaryOp         989                      2 1 tensor_3769 tensor_3799 tensor_3800 0=2
BinaryOp         990                      2 1 tensor_3761 tensor_3800 tensor_3801 0=0
Reshape          991                      1 1 tensor_3785 tensor_3802 0=512
MemoryData       992                      0 1 blocks.7.att.time_mix_r 0=512 21=0
BinaryOp         993                      2 1 blocks.7.att.time_mix_r tensor_3802 tensor_3804 0=0
BinaryOp         994                      2 1 tensor_3770 tensor_3804 tensor_3805 0=2
BinaryOp         995                      2 1 tensor_3762 tensor_3805 tensor_3806 0=0
Reshape          996                      1 1 tensor_3786 tensor_3807 0=512
MemoryData       997                      0 1 blocks.7.att.time_mix_g 0=512 21=0
BinaryOp         998                      2 1 blocks.7.att.time_mix_g tensor_3807 tensor_3809 0=0
BinaryOp         999                      2 1 tensor_3771 tensor_3809 tensor_3810 0=2
BinaryOp         1000                     2 1 tensor_3763 tensor_3810 tensor_3811 0=0
Reshape          1001                     1 1 tensor_3791 tensor_3812 0=0 1=1
Gemm             1002                     1 1 tensor_3812 tensor_3814 4=0 5=1 6=1 7=0 8=64 9=512 10=-1
Reshape          1003                     1 1 tensor_3814 tensor_3815 0=-1
TanH             1004                     1 1 tensor_3815 tensor_3816
Reshape          1005                     1 1 tensor_3816 tensor_3817 0=0 1=1
Gemm             1006                     1 1 tensor_3817 tensor_3819 4=0 5=1 6=1 7=0 8=512 9=64 10=-1
Reshape          1007                     1 1 tensor_3819 tensor_3820 0=-1
Reshape          1008                     1 1 tensor_3820 tensor_3821 0=1 1=64 2=8
MemoryData       1009                     0 1 blocks.7.att.time_decay 0=1 1=64 2=8 21=0
BinaryOp         1010                     2 1 blocks.7.att.time_decay tensor_3821 tensor_3823 0=0
Exp              1011                     1 1 tensor_3823 tensor_3824
BinaryOp         1012                     1 1 tensor_3824 tensor_3825 0=7 1=1 2=0.000000e+00
Exp              1013                     1 1 tensor_3825 tensor_3826
Reshape          1014                     1 1 tensor_3806 tensor_3827 0=0 1=1
Gemm             1015                     1 1 tensor_3827 tensor_3829 4=0 5=1 6=1 7=0 8=512 9=512 10=-1
Reshape          1016                     1 1 tensor_3829 tensor_3830 0=-1
Reshape          1017                     1 1 tensor_3830 tensor_3831 0=64 1=1 2=8
Reshape          1018                     1 1 tensor_3796 tensor_3832 0=0 1=1
Gemm             1019                     1 1 tensor_3832 tensor_3834 4=0 5=1 6=1 7=0 8=512 9=512 10=-1
Reshape          1020                     1 1 tensor_3834 tensor_3835 0=-1
Reshape          1021                     1 1 tensor_3835 tensor_3836 0=1 1=64 2=8
Reshape          1022                     1 1 tensor_3801 tensor_3837 0=0 1=1
Gemm             1023                     1 1 tensor_3837 tensor_3839 4=0 5=1 6=1 7=0 8=512 9=512 10=-1
Reshape          1024                     1 1 tensor_3839 tensor_3840 0=-1
Reshape          1025                     1 1 tensor_3840 tensor_3841 0=64 1=1 2=8
Reshape          1026                     1 1 tensor_3811 tensor_3842 0=0 1=1
Gemm             1027                     1 1 tensor_3842 tensor_3844 4=0 5=1 6=1 7=0 8=512 9=512 10=-1
Reshape          1028                     1 1 tensor_3844 tensor_3845 0=-1
Swish            1029                     1 1 tensor_3845 tensor_3846
MatMul           1030                     2 1 tensor_3836 tensor_3841 tensor_3847 0=0
Split            1031                     1 2 tensor_3847 tensor_3848 tensor_3849
Split            1032                     1 2 state_7_1 tensor_3850 tensor_3851
MemoryData       1033                     0 1 blocks.7.att.time_first 0=1 1=64 2=8 21=0
BinaryOp         1034                     2 1 tensor_3848 blocks.7.att.time_first tensor_3853 0=2
BinaryOp         1035                     2 1 tensor_3853 tensor_3850 tensor_3854 0=0
MatMul           1036                     2 1 tensor_3831 tensor_3854 tensor_3855 0=0
BinaryOp         1037                     2 1 tensor_3851 tensor_3826 tensor_3856 0=2
BinaryOp         1038                     2 1 tensor_3849 tensor_3856 tensor_3857 0=0
Reshape          1039                     1 1 tensor_3855 tensor_3858 0=512
GroupNorm        1040                     1 1 tensor_3858 tensor_3859 0=8 1=512 2=1.000000e-05 3=1
Reshape          1041                     1 1 tensor_3859 tensor_3860 0=512
BinaryOp         1042                     2 1 tensor_3860 tensor_3846 tensor_3861 0=2
Reshape          1043                     1 1 tensor_3861 tensor_3862 0=0 1=1
Gemm             1044                     1 1 tensor_3862 tensor_3864 4=0 5=1 6=1 7=0 8=512 9=512 10=-1
Reshape          1045                     1 1 tensor_3864 tensor_3865 0=-1
BinaryOp         1046                     2 1 tensor_3754 tensor_3865 tensor_3866 0=0
Split            1047                     1 1 tensor_3764 output_state_7_0
Split            1048                     1 1 tensor_3857 output_state_7_1
Split            1049                     1 2 tensor_3866 tensor_3869 tensor_3870
LayerNorm        1050                     1 1 tensor_3869 tensor_3871 0=512 1=1.000000e-05 2=1
Split            1051                     1 4 tensor_3871 tensor_3872 tensor_3873 tensor_3874 tensor_3875
BinaryOp         1052                     2 1 state_7_2 tensor_3875 tensor_3876 0=1
Split            1053                     1 2 tensor_3876 tensor_3877 tensor_3878
MemoryData       1054                     0 1 blocks.7.ffn.time_mix_k 0=512 21=0
BinaryOp         1055                     2 1 tensor_3877 blocks.7.ffn.time_mix_k tensor_3880 0=2
BinaryOp         1056                     2 1 tensor_3872 tensor_3880 tensor_3881 0=0
MemoryData       1057                     0 1 blocks.7.ffn.time_mix_r 0=512 21=0
BinaryOp         1058                     2 1 tensor_3878 blocks.7.ffn.time_mix_r tensor_3883 0=2
BinaryOp         1059                     2 1 tensor_3873 tensor_3883 tensor_3884 0=0
Reshape          1060                     1 1 tensor_3884 tensor_3885 0=0 1=1
Gemm             1061                     1 1 tensor_3885 tensor_3887 4=0 5=1 6=1 7=0 8=512 9=512 10=-1
Reshape          1062                     1 1 tensor_3887 tensor_3888 0=-1
Sigmoid          1063                     1 1 tensor_3888 tensor_3889
Reshape          1064                     1 1 tensor_3881 tensor_3890 0=0 1=1
Gemm             1065                     1 1 tensor_3890 tensor_3892 4=0 5=1 6=1 7=0 8=1792 9=512 10=-1
Reshape          1066                     1 1 tensor_3892 tensor_3893 0=-1
ReLU             1067                     1 1 tensor_3893 tensor_3894
BinaryOp         1068                     2 1 tensor_3894 tensor_3894 tensor_3895 0=2
Reshape          1069                     1 1 tensor_3895 tensor_3896 0=0 1=1
Gemm             1070                     1 1 tensor_3896 tensor_3898 4=0 5=1 6=1 7=0 8=512 9=1792 10=-1
Reshape          1071                     1 1 tensor_3898 tensor_3899 0=-1
BinaryOp         1072                     2 1 tensor_3889 tensor_3899 tensor_3900 0=2
BinaryOp         1073                     2 1 tensor_3870 tensor_3900 tensor_3901 0=0
Split            1074                     1 1 tensor_3874 output_state_7_2
Split            1075                     1 2 tensor_3901 tensor_3903 tensor_3904
LayerNorm        1076                     1 1 tensor_3903 tensor_3905 0=512 1=1.000000e-05 2=1
Split            1077                     1 3 tensor_3905 tensor_3906 tensor_3907 tensor_3908
Split            1078                     1 6 tensor_3906 tensor_3909 tensor_3910 tensor_3911 tensor_3912 tensor_3913 tensor_3914
BinaryOp         1079                     2 1 state_8_0 tensor_3907 tensor_3915 0=1
Split            1080                     1 6 tensor_3915 tensor_3916 tensor_3917 tensor_3918 tensor_3919 tensor_3920 tensor_3921
MemoryData       1081                     0 1 blocks.8.att.time_mix_x 0=512 21=0
BinaryOp         1082                     2 1 tensor_3916 blocks.8.att.time_mix_x tensor_3923 0=2
BinaryOp         1083                     2 1 tensor_3908 tensor_3923 tensor_3924 0=0
MemoryData       1084                     0 1 blocks.8.att.time_mix_w1 0=160 1=512 21=0
MatMul           1085                     2 1 tensor_3924 blocks.8.att.time_mix_w1 tensor_3926 0=0
TanH             1086                     1 1 tensor_3926 tensor_3927
Reshape          1087                     1 1 tensor_3927 tensor_3928 0=32 1=1 2=5
MemoryData       1088                     0 1 blocks.8.att.time_mix_w2 0=512 1=32 2=5 21=0
MatMul           1089                     2 1 tensor_3928 blocks.8.att.time_mix_w2 tensor_3930 0=0
Reshape          1090                     1 1 tensor_3930 tensor_3931 0=512 1=5
Slice            1091                     1 5 tensor_3931 tensor_3932 tensor_3933 tensor_3934 tensor_3935 tensor_3936 -23300=5,-233,-233,-233,-233,-233 1=0
Reshape          1092                     1 1 tensor_3932 tensor_3937 0=512
MemoryData       1093                     0 1 blocks.8.att.time_mix_w 0=512 21=0
BinaryOp         1094                     2 1 blocks.8.att.time_mix_w tensor_3937 tensor_3939 0=0
BinaryOp         1095                     2 1 tensor_3917 tensor_3939 tensor_3940 0=2
BinaryOp         1096                     2 1 tensor_3909 tensor_3940 tensor_3941 0=0
Reshape          1097                     1 1 tensor_3933 tensor_3942 0=512
MemoryData       1098                     0 1 blocks.8.att.time_mix_k 0=512 21=0
BinaryOp         1099                     2 1 blocks.8.att.time_mix_k tensor_3942 tensor_3944 0=0
BinaryOp         1100                     2 1 tensor_3918 tensor_3944 tensor_3945 0=2
BinaryOp         1101                     2 1 tensor_3910 tensor_3945 tensor_3946 0=0
Reshape          1102                     1 1 tensor_3934 tensor_3947 0=512
MemoryData       1103                     0 1 blocks.8.att.time_mix_v 0=512 21=0
BinaryOp         1104                     2 1 blocks.8.att.time_mix_v tensor_3947 tensor_3949 0=0
BinaryOp         1105                     2 1 tensor_3919 tensor_3949 tensor_3950 0=2
BinaryOp         1106                     2 1 tensor_3911 tensor_3950 tensor_3951 0=0
Reshape          1107                     1 1 tensor_3935 tensor_3952 0=512
MemoryData       1108                     0 1 blocks.8.att.time_mix_r 0=512 21=0
BinaryOp         1109                     2 1 blocks.8.att.time_mix_r tensor_3952 tensor_3954 0=0
BinaryOp         1110                     2 1 tensor_3920 tensor_3954 tensor_3955 0=2
BinaryOp         1111                     2 1 tensor_3912 tensor_3955 tensor_3956 0=0
Reshape          1112                     1 1 tensor_3936 tensor_3957 0=512
MemoryData       1113                     0 1 blocks.8.att.time_mix_g 0=512 21=0
BinaryOp         1114                     2 1 blocks.8.att.time_mix_g tensor_3957 tensor_3959 0=0
BinaryOp         1115                     2 1 tensor_3921 tensor_3959 tensor_3960 0=2
BinaryOp         1116                     2 1 tensor_3913 tensor_3960 tensor_3961 0=0
Reshape          1117                     1 1 tensor_3941 tensor_3962 0=0 1=1
Gemm             1118                     1 1 tensor_3962 tensor_3964 4=0 5=1 6=1 7=0 8=64 9=512 10=-1
Reshape          1119                     1 1 tensor_3964 tensor_3965 0=-1
TanH             1120                     1 1 tensor_3965 tensor_3966
Reshape          1121                     1 1 tensor_3966 tensor_3967 0=0 1=1
Gemm             1122                     1 1 tensor_3967 tensor_3969 4=0 5=1 6=1 7=0 8=512 9=64 10=-1
Reshape          1123                     1 1 tensor_3969 tensor_3970 0=-1
Reshape          1124                     1 1 tensor_3970 tensor_3971 0=1 1=64 2=8
MemoryData       1125                     0 1 blocks.8.att.time_decay 0=1 1=64 2=8 21=0
BinaryOp         1126                     2 1 blocks.8.att.time_decay tensor_3971 tensor_3973 0=0
Exp              1127                     1 1 tensor_3973 tensor_3974
BinaryOp         1128                     1 1 tensor_3974 tensor_3975 0=7 1=1 2=0.000000e+00
Exp              1129                     1 1 tensor_3975 tensor_3976
Reshape          1130                     1 1 tensor_3956 tensor_3977 0=0 1=1
Gemm             1131                     1 1 tensor_3977 tensor_3979 4=0 5=1 6=1 7=0 8=512 9=512 10=-1
Reshape          1132                     1 1 tensor_3979 tensor_3980 0=-1
Reshape          1133                     1 1 tensor_3980 tensor_3981 0=64 1=1 2=8
Reshape          1134                     1 1 tensor_3946 tensor_3982 0=0 1=1
Gemm             1135                     1 1 tensor_3982 tensor_3984 4=0 5=1 6=1 7=0 8=512 9=512 10=-1
Reshape          1136                     1 1 tensor_3984 tensor_3985 0=-1
Reshape          1137                     1 1 tensor_3985 tensor_3986 0=1 1=64 2=8
Reshape          1138                     1 1 tensor_3951 tensor_3987 0=0 1=1
Gemm             1139                     1 1 tensor_3987 tensor_3989 4=0 5=1 6=1 7=0 8=512 9=512 10=-1
Reshape          1140                     1 1 tensor_3989 tensor_3990 0=-1
Reshape          1141                     1 1 tensor_3990 tensor_3991 0=64 1=1 2=8
Reshape          1142                     1 1 tensor_3961 tensor_3992 0=0 1=1
Gemm             1143                     1 1 tensor_3992 tensor_3994 4=0 5=1 6=1 7=0 8=512 9=512 10=-1
Reshape          1144                     1 1 tensor_3994 tensor_3995 0=-1
Swish            1145                     1 1 tensor_3995 tensor_3996
MatMul           1146                     2 1 tensor_3986 tensor_3991 tensor_3997 0=0
Split            1147                     1 2 tensor_3997 tensor_3998 tensor_3999
Split            1148                     1 2 state_8_1 tensor_4000 tensor_4001
MemoryData       1149                     0 1 blocks.8.att.time_first 0=1 1=64 2=8 21=0
BinaryOp         1150                     2 1 tensor_3998 blocks.8.att.time_first tensor_4003 0=2
BinaryOp         1151                     2 1 tensor_4003 tensor_4000 tensor_4004 0=0
MatMul           1152                     2 1 tensor_3981 tensor_4004 tensor_4005 0=0
BinaryOp         1153                     2 1 tensor_4001 tensor_3976 tensor_4006 0=2
BinaryOp         1154                     2 1 tensor_3999 tensor_4006 tensor_4007 0=0
Reshape          1155                     1 1 tensor_4005 tensor_4008 0=512
GroupNorm        1156                     1 1 tensor_4008 tensor_4009 0=8 1=512 2=1.000000e-05 3=1
Reshape          1157                     1 1 tensor_4009 tensor_4010 0=512
BinaryOp         1158                     2 1 tensor_4010 tensor_3996 tensor_4011 0=2
Reshape          1159                     1 1 tensor_4011 tensor_4012 0=0 1=1
Gemm             1160                     1 1 tensor_4012 tensor_4014 4=0 5=1 6=1 7=0 8=512 9=512 10=-1
Reshape          1161                     1 1 tensor_4014 tensor_4015 0=-1
BinaryOp         1162                     2 1 tensor_3904 tensor_4015 tensor_4016 0=0
Split            1163                     1 1 tensor_3914 output_state_8_0
Split            1164                     1 1 tensor_4007 output_state_8_1
Split            1165                     1 2 tensor_4016 tensor_4019 tensor_4020
LayerNorm        1166                     1 1 tensor_4019 tensor_4021 0=512 1=1.000000e-05 2=1
Split            1167                     1 4 tensor_4021 tensor_4022 tensor_4023 tensor_4024 tensor_4025
BinaryOp         1168                     2 1 state_8_2 tensor_4025 tensor_4026 0=1
Split            1169                     1 2 tensor_4026 tensor_4027 tensor_4028
MemoryData       1170                     0 1 blocks.8.ffn.time_mix_k 0=512 21=0
BinaryOp         1171                     2 1 tensor_4027 blocks.8.ffn.time_mix_k tensor_4030 0=2
BinaryOp         1172                     2 1 tensor_4022 tensor_4030 tensor_4031 0=0
MemoryData       1173                     0 1 blocks.8.ffn.time_mix_r 0=512 21=0
BinaryOp         1174                     2 1 tensor_4028 blocks.8.ffn.time_mix_r tensor_4033 0=2
BinaryOp         1175                     2 1 tensor_4023 tensor_4033 tensor_4034 0=0
Reshape          1176                     1 1 tensor_4034 tensor_4035 0=0 1=1
Gemm             1177                     1 1 tensor_4035 tensor_4037 4=0 5=1 6=1 7=0 8=512 9=512 10=-1
Reshape          1178                     1 1 tensor_4037 tensor_4038 0=-1
Sigmoid          1179                     1 1 tensor_4038 tensor_4039
Reshape          1180                     1 1 tensor_4031 tensor_4040 0=0 1=1
Gemm             1181                     1 1 tensor_4040 tensor_4042 4=0 5=1 6=1 7=0 8=1792 9=512 10=-1
Reshape          1182                     1 1 tensor_4042 tensor_4043 0=-1
ReLU             1183                     1 1 tensor_4043 tensor_4044
BinaryOp         1184                     2 1 tensor_4044 tensor_4044 tensor_4045 0=2
Reshape          1185                     1 1 tensor_4045 tensor_4046 0=0 1=1
Gemm             1186                     1 1 tensor_4046 tensor_4048 4=0 5=1 6=1 7=0 8=512 9=1792 10=-1
Reshape          1187                     1 1 tensor_4048 tensor_4049 0=-1
BinaryOp         1188                     2 1 tensor_4039 tensor_4049 tensor_4050 0=2
BinaryOp         1189                     2 1 tensor_4020 tensor_4050 tensor_4051 0=0
Split            1190                     1 1 tensor_4024 output_state_8_2
Split            1191                     1 2 tensor_4051 tensor_4053 tensor_4054
LayerNorm        1192                     1 1 tensor_4053 tensor_4055 0=512 1=1.000000e-05 2=1
Split            1193                     1 3 tensor_4055 tensor_4056 tensor_4057 tensor_4058
Split            1194                     1 6 tensor_4056 tensor_4059 tensor_4060 tensor_4061 tensor_4062 tensor_4063 tensor_4064
BinaryOp         1195                     2 1 state_9_0 tensor_4057 tensor_4065 0=1
Split            1196                     1 6 tensor_4065 tensor_4066 tensor_4067 tensor_4068 tensor_4069 tensor_4070 tensor_4071
MemoryData       1197                     0 1 blocks.9.att.time_mix_x 0=512 21=0
BinaryOp         1198                     2 1 tensor_4066 blocks.9.att.time_mix_x tensor_4073 0=2
BinaryOp         1199                     2 1 tensor_4058 tensor_4073 tensor_4074 0=0
MemoryData       1200                     0 1 blocks.9.att.time_mix_w1 0=160 1=512 21=0
MatMul           1201                     2 1 tensor_4074 blocks.9.att.time_mix_w1 tensor_4076 0=0
TanH             1202                     1 1 tensor_4076 tensor_4077
Reshape          1203                     1 1 tensor_4077 tensor_4078 0=32 1=1 2=5
MemoryData       1204                     0 1 blocks.9.att.time_mix_w2 0=512 1=32 2=5 21=0
MatMul           1205                     2 1 tensor_4078 blocks.9.att.time_mix_w2 tensor_4080 0=0
Reshape          1206                     1 1 tensor_4080 tensor_4081 0=512 1=5
Slice            1207                     1 5 tensor_4081 tensor_4082 tensor_4083 tensor_4084 tensor_4085 tensor_4086 -23300=5,-233,-233,-233,-233,-233 1=0
Reshape          1208                     1 1 tensor_4082 tensor_4087 0=512
MemoryData       1209                     0 1 blocks.9.att.time_mix_w 0=512 21=0
BinaryOp         1210                     2 1 blocks.9.att.time_mix_w tensor_4087 tensor_4089 0=0
BinaryOp         1211                     2 1 tensor_4067 tensor_4089 tensor_4090 0=2
BinaryOp         1212                     2 1 tensor_4059 tensor_4090 tensor_4091 0=0
Reshape          1213                     1 1 tensor_4083 tensor_4092 0=512
MemoryData       1214                     0 1 blocks.9.att.time_mix_k 0=512 21=0
BinaryOp         1215                     2 1 blocks.9.att.time_mix_k tensor_4092 tensor_4094 0=0
BinaryOp         1216                     2 1 tensor_4068 tensor_4094 tensor_4095 0=2
BinaryOp         1217                     2 1 tensor_4060 tensor_4095 tensor_4096 0=0
Reshape          1218                     1 1 tensor_4084 tensor_4097 0=512
MemoryData       1219                     0 1 blocks.9.att.time_mix_v 0=512 21=0
BinaryOp         1220                     2 1 blocks.9.att.time_mix_v tensor_4097 tensor_4099 0=0
BinaryOp         1221                     2 1 tensor_4069 tensor_4099 tensor_4100 0=2
BinaryOp         1222                     2 1 tensor_4061 tensor_4100 tensor_4101 0=0
Reshape          1223                     1 1 tensor_4085 tensor_4102 0=512
MemoryData       1224                     0 1 blocks.9.att.time_mix_r 0=512 21=0
BinaryOp         1225                     2 1 blocks.9.att.time_mix_r tensor_4102 tensor_4104 0=0
BinaryOp         1226                     2 1 tensor_4070 tensor_4104 tensor_4105 0=2
BinaryOp         1227                     2 1 tensor_4062 tensor_4105 tensor_4106 0=0
Reshape          1228                     1 1 tensor_4086 tensor_4107 0=512
MemoryData       1229                     0 1 blocks.9.att.time_mix_g 0=512 21=0
BinaryOp         1230                     2 1 blocks.9.att.time_mix_g tensor_4107 tensor_4109 0=0
BinaryOp         1231                     2 1 tensor_4071 tensor_4109 tensor_4110 0=2
BinaryOp         1232                     2 1 tensor_4063 tensor_4110 tensor_4111 0=0
Reshape          1233                     1 1 tensor_4091 tensor_4112 0=0 1=1
Gemm             1234                     1 1 tensor_4112 tensor_4114 4=0 5=1 6=1 7=0 8=64 9=512 10=-1
Reshape          1235                     1 1 tensor_4114 tensor_4115 0=-1
TanH             1236                     1 1 tensor_4115 tensor_4116
Reshape          1237                     1 1 tensor_4116 tensor_4117 0=0 1=1
Gemm             1238                     1 1 tensor_4117 tensor_4119 4=0 5=1 6=1 7=0 8=512 9=64 10=-1
Reshape          1239                     1 1 tensor_4119 tensor_4120 0=-1
Reshape          1240                     1 1 tensor_4120 tensor_4121 0=1 1=64 2=8
MemoryData       1241                     0 1 blocks.9.att.time_decay 0=1 1=64 2=8 21=0
BinaryOp         1242                     2 1 blocks.9.att.time_decay tensor_4121 tensor_4123 0=0
Exp              1243                     1 1 tensor_4123 tensor_4124
BinaryOp         1244                     1 1 tensor_4124 tensor_4125 0=7 1=1 2=0.000000e+00
Exp              1245                     1 1 tensor_4125 tensor_4126
Reshape          1246                     1 1 tensor_4106 tensor_4127 0=0 1=1
Gemm             1247                     1 1 tensor_4127 tensor_4129 4=0 5=1 6=1 7=0 8=512 9=512 10=-1
Reshape          1248                     1 1 tensor_4129 tensor_4130 0=-1
Reshape          1249                     1 1 tensor_4130 tensor_4131 0=64 1=1 2=8
Reshape          1250                     1 1 tensor_4096 tensor_4132 0=0 1=1
Gemm             1251                     1 1 tensor_4132 tensor_4134 4=0 5=1 6=1 7=0 8=512 9=512 10=-1
Reshape          1252                     1 1 tensor_4134 tensor_4135 0=-1
Reshape          1253                     1 1 tensor_4135 tensor_4136 0=1 1=64 2=8
Reshape          1254                     1 1 tensor_4101 tensor_4137 0=0 1=1
Gemm             1255                     1 1 tensor_4137 tensor_4139 4=0 5=1 6=1 7=0 8=512 9=512 10=-1
Reshape          1256                     1 1 tensor_4139 tensor_4140 0=-1
Reshape          1257                     1 1 tensor_4140 tensor_4141 0=64 1=1 2=8
Reshape          1258                     1 1 tensor_4111 tensor_4142 0=0 1=1
Gemm             1259                     1 1 tensor_4142 tensor_4144 4=0 5=1 6=1 7=0 8=512 9=512 10=-1
Reshape          1260                     1 1 tensor_4144 tensor_4145 0=-1
Swish            1261                     1 1 tensor_4145 tensor_4146
MatMul           1262                     2 1 tensor_4136 tensor_4141 tensor_4147 0=0
Split            1263                     1 2 tensor_4147 tensor_4148 tensor_4149
Split            1264                     1 2 state_9_1 tensor_4150 tensor_4151
MemoryData       1265                     0 1 blocks.9.att.time_first 0=1 1=64 2=8 21=0
BinaryOp         1266                     2 1 tensor_4148 blocks.9.att.time_first tensor_4153 0=2
BinaryOp         1267                     2 1 tensor_4153 tensor_4150 tensor_4154 0=0
MatMul           1268                     2 1 tensor_4131 tensor_4154 tensor_4155 0=0
BinaryOp         1269                     2 1 tensor_4151 tensor_4126 tensor_4156 0=2
BinaryOp         1270                     2 1 tensor_4149 tensor_4156 tensor_4157 0=0
Reshape          1271                     1 1 tensor_4155 tensor_4158 0=512
GroupNorm        1272                     1 1 tensor_4158 tensor_4159 0=8 1=512 2=1.000000e-05 3=1
Reshape          1273                     1 1 tensor_4159 tensor_4160 0=512
BinaryOp         1274                     2 1 tensor_4160 tensor_4146 tensor_4161 0=2
Reshape          1275                     1 1 tensor_4161 tensor_4162 0=0 1=1
Gemm             1276                     1 1 tensor_4162 tensor_4164 4=0 5=1 6=1 7=0 8=512 9=512 10=-1
Reshape          1277                     1 1 tensor_4164 tensor_4165 0=-1
BinaryOp         1278                     2 1 tensor_4054 tensor_4165 tensor_4166 0=0
Split            1279                     1 1 tensor_4064 output_state_9_0
Split            1280                     1 1 tensor_4157 output_state_9_1
Split            1281                     1 2 tensor_4166 tensor_4169 tensor_4170
LayerNorm        1282                     1 1 tensor_4169 tensor_4171 0=512 1=1.000000e-05 2=1
Split            1283                     1 4 tensor_4171 tensor_4172 tensor_4173 tensor_4174 tensor_4175
BinaryOp         1284                     2 1 state_9_2 tensor_4175 tensor_4176 0=1
Split            1285                     1 2 tensor_4176 tensor_4177 tensor_4178
MemoryData       1286                     0 1 blocks.9.ffn.time_mix_k 0=512 21=0
BinaryOp         1287                     2 1 tensor_4177 blocks.9.ffn.time_mix_k tensor_4180 0=2
BinaryOp         1288                     2 1 tensor_4172 tensor_4180 tensor_4181 0=0
MemoryData       1289                     0 1 blocks.9.ffn.time_mix_r 0=512 21=0
BinaryOp         1290                     2 1 tensor_4178 blocks.9.ffn.time_mix_r tensor_4183 0=2
BinaryOp         1291                     2 1 tensor_4173 tensor_4183 tensor_4184 0=0
Reshape          1292                     1 1 tensor_4184 tensor_4185 0=0 1=1
Gemm             1293                     1 1 tensor_4185 tensor_4187 4=0 5=1 6=1 7=0 8=512 9=512 10=-1
Reshape          1294                     1 1 tensor_4187 tensor_4188 0=-1
Sigmoid          1295                     1 1 tensor_4188 tensor_4189
Reshape          1296                     1 1 tensor_4181 tensor_4190 0=0 1=1
Gemm             1297                     1 1 tensor_4190 tensor_4192 4=0 5=1 6=1 7=0 8=1792 9=512 10=-1
Reshape          1298                     1 1 tensor_4192 tensor_4193 0=-1
ReLU             1299                     1 1 tensor_4193 tensor_4194
BinaryOp         1300                     2 1 tensor_4194 tensor_4194 tensor_4195 0=2
Reshape          1301                     1 1 tensor_4195 tensor_4196 0=0 1=1
Gemm             1302                     1 1 tensor_4196 tensor_4198 4=0 5=1 6=1 7=0 8=512 9=1792 10=-1
Reshape          1303                     1 1 tensor_4198 tensor_4199 0=-1
BinaryOp         1304                     2 1 tensor_4189 tensor_4199 tensor_4200 0=2
BinaryOp         1305                     2 1 tensor_4170 tensor_4200 tensor_4201 0=0
Split            1306                     1 1 tensor_4174 output_state_9_2
Split            1307                     1 2 tensor_4201 tensor_4203 tensor_4204
LayerNorm        1308                     1 1 tensor_4203 tensor_4205 0=512 1=1.000000e-05 2=1
Split            1309                     1 3 tensor_4205 tensor_4206 tensor_4207 tensor_4208
Split            1310                     1 6 tensor_4206 tensor_4209 tensor_4210 tensor_4211 tensor_4212 tensor_4213 tensor_4214
BinaryOp         1311                     2 1 state_10_0 tensor_4207 tensor_4215 0=1
Split            1312                     1 6 tensor_4215 tensor_4216 tensor_4217 tensor_4218 tensor_4219 tensor_4220 tensor_4221
MemoryData       1313                     0 1 blocks.10.att.time_mix_x 0=512 21=0
BinaryOp         1314                     2 1 tensor_4216 blocks.10.att.time_mix_x tensor_4223 0=2
BinaryOp         1315                     2 1 tensor_4208 tensor_4223 tensor_4224 0=0
MemoryData       1316                     0 1 blocks.10.att.time_mix_w1 0=160 1=512 21=0
MatMul           1317                     2 1 tensor_4224 blocks.10.att.time_mix_w1 tensor_4226 0=0
TanH             1318                     1 1 tensor_4226 tensor_4227
Reshape          1319                     1 1 tensor_4227 tensor_4228 0=32 1=1 2=5
MemoryData       1320                     0 1 blocks.10.att.time_mix_w2 0=512 1=32 2=5 21=0
MatMul           1321                     2 1 tensor_4228 blocks.10.att.time_mix_w2 tensor_4230 0=0
Reshape          1322                     1 1 tensor_4230 tensor_4231 0=512 1=5
Slice            1323                     1 5 tensor_4231 tensor_4232 tensor_4233 tensor_4234 tensor_4235 tensor_4236 -23300=5,-233,-233,-233,-233,-233 1=0
Reshape          1324                     1 1 tensor_4232 tensor_4237 0=512
MemoryData       1325                     0 1 blocks.10.att.time_mix_w 0=512 21=0
BinaryOp         1326                     2 1 blocks.10.att.time_mix_w tensor_4237 tensor_4239 0=0
BinaryOp         1327                     2 1 tensor_4217 tensor_4239 tensor_4240 0=2
BinaryOp         1328                     2 1 tensor_4209 tensor_4240 tensor_4241 0=0
Reshape          1329                     1 1 tensor_4233 tensor_4242 0=512
MemoryData       1330                     0 1 blocks.10.att.time_mix_k 0=512 21=0
BinaryOp         1331                     2 1 blocks.10.att.time_mix_k tensor_4242 tensor_4244 0=0
BinaryOp         1332                     2 1 tensor_4218 tensor_4244 tensor_4245 0=2
BinaryOp         1333                     2 1 tensor_4210 tensor_4245 tensor_4246 0=0
Reshape          1334                     1 1 tensor_4234 tensor_4247 0=512
MemoryData       1335                     0 1 blocks.10.att.time_mix_v 0=512 21=0
BinaryOp         1336                     2 1 blocks.10.att.time_mix_v tensor_4247 tensor_4249 0=0
BinaryOp         1337                     2 1 tensor_4219 tensor_4249 tensor_4250 0=2
BinaryOp         1338                     2 1 tensor_4211 tensor_4250 tensor_4251 0=0
Reshape          1339                     1 1 tensor_4235 tensor_4252 0=512
MemoryData       1340                     0 1 blocks.10.att.time_mix_r 0=512 21=0
BinaryOp         1341                     2 1 blocks.10.att.time_mix_r tensor_4252 tensor_4254 0=0
BinaryOp         1342                     2 1 tensor_4220 tensor_4254 tensor_4255 0=2
BinaryOp         1343                     2 1 tensor_4212 tensor_4255 tensor_4256 0=0
Reshape          1344                     1 1 tensor_4236 tensor_4257 0=512
MemoryData       1345                     0 1 blocks.10.att.time_mix_g 0=512 21=0
BinaryOp         1346                     2 1 blocks.10.att.time_mix_g tensor_4257 tensor_4259 0=0
BinaryOp         1347                     2 1 tensor_4221 tensor_4259 tensor_4260 0=2
BinaryOp         1348                     2 1 tensor_4213 tensor_4260 tensor_4261 0=0
Reshape          1349                     1 1 tensor_4241 tensor_4262 0=0 1=1
Gemm             1350                     1 1 tensor_4262 tensor_4264 4=0 5=1 6=1 7=0 8=64 9=512 10=-1
Reshape          1351                     1 1 tensor_4264 tensor_4265 0=-1
TanH             1352                     1 1 tensor_4265 tensor_4266
Reshape          1353                     1 1 tensor_4266 tensor_4267 0=0 1=1
Gemm             1354                     1 1 tensor_4267 tensor_4269 4=0 5=1 6=1 7=0 8=512 9=64 10=-1
Reshape          1355                     1 1 tensor_4269 tensor_4270 0=-1
Reshape          1356                     1 1 tensor_4270 tensor_4271 0=1 1=64 2=8
MemoryData       1357                     0 1 blocks.10.att.time_decay 0=1 1=64 2=8 21=0
BinaryOp         1358                     2 1 blocks.10.att.time_decay tensor_4271 tensor_4273 0=0
Exp              1359                     1 1 tensor_4273 tensor_4274
BinaryOp         1360                     1 1 tensor_4274 tensor_4275 0=7 1=1 2=0.000000e+00
Exp              1361                     1 1 tensor_4275 tensor_4276
Reshape          1362                     1 1 tensor_4256 tensor_4277 0=0 1=1
Gemm             1363                     1 1 tensor_4277 tensor_4279 4=0 5=1 6=1 7=0 8=512 9=512 10=-1
Reshape          1364                     1 1 tensor_4279 tensor_4280 0=-1
Reshape          1365                     1 1 tensor_4280 tensor_4281 0=64 1=1 2=8
Reshape          1366                     1 1 tensor_4246 tensor_4282 0=0 1=1
Gemm             1367                     1 1 tensor_4282 tensor_4284 4=0 5=1 6=1 7=0 8=512 9=512 10=-1
Reshape          1368                     1 1 tensor_4284 tensor_4285 0=-1
Reshape          1369                     1 1 tensor_4285 tensor_4286 0=1 1=64 2=8
Reshape          1370                     1 1 tensor_4251 tensor_4287 0=0 1=1
Gemm             1371                     1 1 tensor_4287 tensor_4289 4=0 5=1 6=1 7=0 8=512 9=512 10=-1
Reshape          1372                     1 1 tensor_4289 tensor_4290 0=-1
Reshape          1373                     1 1 tensor_4290 tensor_4291 0=64 1=1 2=8
Reshape          1374                     1 1 tensor_4261 tensor_4292 0=0 1=1
Gemm             1375                     1 1 tensor_4292 tensor_4294 4=0 5=1 6=1 7=0 8=512 9=512 10=-1
Reshape          1376                     1 1 tensor_4294 tensor_4295 0=-1
Swish            1377                     1 1 tensor_4295 tensor_4296
MatMul           1378                     2 1 tensor_4286 tensor_4291 tensor_4297 0=0
Split            1379                     1 2 tensor_4297 tensor_4298 tensor_4299
Split            1380                     1 2 state_10_1 tensor_4300 tensor_4301
MemoryData       1381                     0 1 blocks.10.att.time_first 0=1 1=64 2=8 21=0
BinaryOp         1382                     2 1 tensor_4298 blocks.10.att.time_first tensor_4303 0=2
BinaryOp         1383                     2 1 tensor_4303 tensor_4300 tensor_4304 0=0
MatMul           1384                     2 1 tensor_4281 tensor_4304 tensor_4305 0=0
BinaryOp         1385                     2 1 tensor_4301 tensor_4276 tensor_4306 0=2
BinaryOp         1386                     2 1 tensor_4299 tensor_4306 tensor_4307 0=0
Reshape          1387                     1 1 tensor_4305 tensor_4308 0=512
GroupNorm        1388                     1 1 tensor_4308 tensor_4309 0=8 1=512 2=1.000000e-05 3=1
Reshape          1389                     1 1 tensor_4309 tensor_4310 0=512
BinaryOp         1390                     2 1 tensor_4310 tensor_4296 tensor_4311 0=2
Reshape          1391                     1 1 tensor_4311 tensor_4312 0=0 1=1
Gemm             1392                     1 1 tensor_4312 tensor_4314 4=0 5=1 6=1 7=0 8=512 9=512 10=-1
Reshape          1393                     1 1 tensor_4314 tensor_4315 0=-1
BinaryOp         1394                     2 1 tensor_4204 tensor_4315 tensor_4316 0=0
Split            1395                     1 1 tensor_4214 output_state_10_0
Split            1396                     1 1 tensor_4307 output_state_10_1
Split            1397                     1 2 tensor_4316 tensor_4319 tensor_4320
LayerNorm        1398                     1 1 tensor_4319 tensor_4321 0=512 1=1.000000e-05 2=1
Split            1399                     1 4 tensor_4321 tensor_4322 tensor_4323 tensor_4324 tensor_4325
BinaryOp         1400                     2 1 state_10_2 tensor_4325 tensor_4326 0=1
Split            1401                     1 2 tensor_4326 tensor_4327 tensor_4328
MemoryData       1402                     0 1 blocks.10.ffn.time_mix_k 0=512 21=0
BinaryOp         1403                     2 1 tensor_4327 blocks.10.ffn.time_mix_k tensor_4330 0=2
BinaryOp         1404                     2 1 tensor_4322 tensor_4330 tensor_4331 0=0
MemoryData       1405                     0 1 blocks.10.ffn.time_mix_r 0=512 21=0
BinaryOp         1406                     2 1 tensor_4328 blocks.10.ffn.time_mix_r tensor_4333 0=2
BinaryOp         1407                     2 1 tensor_4323 tensor_4333 tensor_4334 0=0
Reshape          1408                     1 1 tensor_4334 tensor_4335 0=0 1=1
Gemm             1409                     1 1 tensor_4335 tensor_4337 4=0 5=1 6=1 7=0 8=512 9=512 10=-1
Reshape          1410                     1 1 tensor_4337 tensor_4338 0=-1
Sigmoid          1411                     1 1 tensor_4338 tensor_4339
Reshape          1412                     1 1 tensor_4331 tensor_4340 0=0 1=1
Gemm             1413                     1 1 tensor_4340 tensor_4342 4=0 5=1 6=1 7=0 8=1792 9=512 10=-1
Reshape          1414                     1 1 tensor_4342 tensor_4343 0=-1
ReLU             1415                     1 1 tensor_4343 tensor_4344
BinaryOp         1416                     2 1 tensor_4344 tensor_4344 tensor_4345 0=2
Reshape          1417                     1 1 tensor_4345 tensor_4346 0=0 1=1
Gemm             1418                     1 1 tensor_4346 tensor_4348 4=0 5=1 6=1 7=0 8=512 9=1792 10=-1
Reshape          1419                     1 1 tensor_4348 tensor_4349 0=-1
BinaryOp         1420                     2 1 tensor_4339 tensor_4349 tensor_4350 0=2
BinaryOp         1421                     2 1 tensor_4320 tensor_4350 tensor_4351 0=0
Split            1422                     1 1 tensor_4324 output_state_10_2
Split            1423                     1 2 tensor_4351 tensor_4353 tensor_4354
LayerNorm        1424                     1 1 tensor_4353 tensor_4355 0=512 1=1.000000e-05 2=1
Split            1425                     1 3 tensor_4355 tensor_4356 tensor_4357 tensor_4358
Split            1426                     1 6 tensor_4356 tensor_4359 tensor_4360 tensor_4361 tensor_4362 tensor_4363 tensor_4364
BinaryOp         1427                     2 1 state_11_0 tensor_4357 tensor_4365 0=1
Split            1428                     1 6 tensor_4365 tensor_4366 tensor_4367 tensor_4368 tensor_4369 tensor_4370 tensor_4371
MemoryData       1429                     0 1 blocks.11.att.time_mix_x 0=512 21=0
BinaryOp         1430                     2 1 tensor_4366 blocks.11.att.time_mix_x tensor_4373 0=2
BinaryOp         1431                     2 1 tensor_4358 tensor_4373 tensor_4374 0=0
MemoryData       1432                     0 1 blocks.11.att.time_mix_w1 0=160 1=512 21=0
MatMul           1433                     2 1 tensor_4374 blocks.11.att.time_mix_w1 tensor_4376 0=0
TanH             1434                     1 1 tensor_4376 tensor_4377
Reshape          1435                     1 1 tensor_4377 tensor_4378 0=32 1=1 2=5
MemoryData       1436                     0 1 blocks.11.att.time_mix_w2 0=512 1=32 2=5 21=0
MatMul           1437                     2 1 tensor_4378 blocks.11.att.time_mix_w2 tensor_4380 0=0
Reshape          1438                     1 1 tensor_4380 tensor_4381 0=512 1=5
Slice            1439                     1 5 tensor_4381 tensor_4382 tensor_4383 tensor_4384 tensor_4385 tensor_4386 -23300=5,-233,-233,-233,-233,-233 1=0
Reshape          1440                     1 1 tensor_4382 tensor_4387 0=512
MemoryData       1441                     0 1 blocks.11.att.time_mix_w 0=512 21=0
BinaryOp         1442                     2 1 blocks.11.att.time_mix_w tensor_4387 tensor_4389 0=0
BinaryOp         1443                     2 1 tensor_4367 tensor_4389 tensor_4390 0=2
BinaryOp         1444                     2 1 tensor_4359 tensor_4390 tensor_4391 0=0
Reshape          1445                     1 1 tensor_4383 tensor_4392 0=512
MemoryData       1446                     0 1 blocks.11.att.time_mix_k 0=512 21=0
BinaryOp         1447                     2 1 blocks.11.att.time_mix_k tensor_4392 tensor_4394 0=0
BinaryOp         1448                     2 1 tensor_4368 tensor_4394 tensor_4395 0=2
BinaryOp         1449                     2 1 tensor_4360 tensor_4395 tensor_4396 0=0
Reshape          1450                     1 1 tensor_4384 tensor_4397 0=512
MemoryData       1451                     0 1 blocks.11.att.time_mix_v 0=512 21=0
BinaryOp         1452                     2 1 blocks.11.att.time_mix_v tensor_4397 tensor_4399 0=0
BinaryOp         1453                     2 1 tensor_4369 tensor_4399 tensor_4400 0=2
BinaryOp         1454                     2 1 tensor_4361 tensor_4400 tensor_4401 0=0
Reshape          1455                     1 1 tensor_4385 tensor_4402 0=512
MemoryData       1456                     0 1 blocks.11.att.time_mix_r 0=512 21=0
BinaryOp         1457                     2 1 blocks.11.att.time_mix_r tensor_4402 tensor_4404 0=0
BinaryOp         1458                     2 1 tensor_4370 tensor_4404 tensor_4405 0=2
BinaryOp         1459                     2 1 tensor_4362 tensor_4405 tensor_4406 0=0
Reshape          1460                     1 1 tensor_4386 tensor_4407 0=512
MemoryData       1461                     0 1 blocks.11.att.time_mix_g 0=512 21=0
BinaryOp         1462                     2 1 blocks.11.att.time_mix_g tensor_4407 tensor_4409 0=0
BinaryOp         1463                     2 1 tensor_4371 tensor_4409 tensor_4410 0=2
BinaryOp         1464                     2 1 tensor_4363 tensor_4410 tensor_4411 0=0
Reshape          1465                     1 1 tensor_4391 tensor_4412 0=0 1=1
Gemm             1466                     1 1 tensor_4412 tensor_4414 4=0 5=1 6=1 7=0 8=64 9=512 10=-1
Reshape          1467                     1 1 tensor_4414 tensor_4415 0=-1
TanH             1468                     1 1 tensor_4415 tensor_4416
Reshape          1469                     1 1 tensor_4416 tensor_4417 0=0 1=1
Gemm             1470                     1 1 tensor_4417 tensor_4419 4=0 5=1 6=1 7=0 8=512 9=64 10=-1
Reshape          1471                     1 1 tensor_4419 tensor_4420 0=-1
Reshape          1472                     1 1 tensor_4420 tensor_4421 0=1 1=64 2=8
MemoryData       1473                     0 1 blocks.11.att.time_decay 0=1 1=64 2=8 21=0
BinaryOp         1474                     2 1 blocks.11.att.time_decay tensor_4421 tensor_4423 0=0
Exp              1475                     1 1 tensor_4423 tensor_4424
BinaryOp         1476                     1 1 tensor_4424 tensor_4425 0=7 1=1 2=0.000000e+00
Exp              1477                     1 1 tensor_4425 tensor_4426
Reshape          1478                     1 1 tensor_4406 tensor_4427 0=0 1=1
Gemm             1479                     1 1 tensor_4427 tensor_4429 4=0 5=1 6=1 7=0 8=512 9=512 10=-1
Reshape          1480                     1 1 tensor_4429 tensor_4430 0=-1
Reshape          1481                     1 1 tensor_4430 tensor_4431 0=64 1=1 2=8
Reshape          1482                     1 1 tensor_4396 tensor_4432 0=0 1=1
Gemm             1483                     1 1 tensor_4432 tensor_4434 4=0 5=1 6=1 7=0 8=512 9=512 10=-1
Reshape          1484                     1 1 tensor_4434 tensor_4435 0=-1
Reshape          1485                     1 1 tensor_4435 tensor_4436 0=1 1=64 2=8
Reshape          1486                     1 1 tensor_4401 tensor_4437 0=0 1=1
Gemm             1487                     1 1 tensor_4437 tensor_4439 4=0 5=1 6=1 7=0 8=512 9=512 10=-1
Reshape          1488                     1 1 tensor_4439 tensor_4440 0=-1
Reshape          1489                     1 1 tensor_4440 tensor_4441 0=64 1=1 2=8
Reshape          1490                     1 1 tensor_4411 tensor_4442 0=0 1=1
Gemm             1491                     1 1 tensor_4442 tensor_4444 4=0 5=1 6=1 7=0 8=512 9=512 10=-1
Reshape          1492                     1 1 tensor_4444 tensor_4445 0=-1
Swish            1493                     1 1 tensor_4445 tensor_4446
MatMul           1494                     2 1 tensor_4436 tensor_4441 tensor_4447 0=0
Split            1495                     1 2 tensor_4447 tensor_4448 tensor_4449
Split            1496                     1 2 state_11_1 tensor_4450 tensor_4451
MemoryData       1497                     0 1 blocks.11.att.time_first 0=1 1=64 2=8 21=0
BinaryOp         1498                     2 1 tensor_4448 blocks.11.att.time_first tensor_4453 0=2
BinaryOp         1499                     2 1 tensor_4453 tensor_4450 tensor_4454 0=0
MatMul           1500                     2 1 tensor_4431 tensor_4454 tensor_4455 0=0
BinaryOp         1501                     2 1 tensor_4451 tensor_4426 tensor_4456 0=2
BinaryOp         1502                     2 1 tensor_4449 tensor_4456 tensor_4457 0=0
Reshape          1503                     1 1 tensor_4455 tensor_4458 0=512
GroupNorm        1504                     1 1 tensor_4458 tensor_4459 0=8 1=512 2=1.000000e-05 3=1
Reshape          1505                     1 1 tensor_4459 tensor_4460 0=512
BinaryOp         1506                     2 1 tensor_4460 tensor_4446 tensor_4461 0=2
Reshape          1507                     1 1 tensor_4461 tensor_4462 0=0 1=1
Gemm             1508                     1 1 tensor_4462 tensor_4464 4=0 5=1 6=1 7=0 8=512 9=512 10=-1
Reshape          1509                     1 1 tensor_4464 tensor_4465 0=-1
BinaryOp         1510                     2 1 tensor_4354 tensor_4465 tensor_4466 0=0
Split            1511                     1 1 tensor_4364 output_state_11_0
Split            1512                     1 1 tensor_4457 output_state_11_1
Split            1513                     1 2 tensor_4466 tensor_4469 tensor_4470
LayerNorm        1514                     1 1 tensor_4469 tensor_4471 0=512 1=1.000000e-05 2=1
Split            1515                     1 4 tensor_4471 tensor_4472 tensor_4473 tensor_4474 tensor_4475
BinaryOp         1516                     2 1 state_11_2 tensor_4475 tensor_4476 0=1
Split            1517                     1 2 tensor_4476 tensor_4477 tensor_4478
MemoryData       1518                     0 1 blocks.11.ffn.time_mix_k 0=512 21=0
BinaryOp         1519                     2 1 tensor_4477 blocks.11.ffn.time_mix_k tensor_4480 0=2
BinaryOp         1520                     2 1 tensor_4472 tensor_4480 tensor_4481 0=0
MemoryData       1521                     0 1 blocks.11.ffn.time_mix_r 0=512 21=0
BinaryOp         1522                     2 1 tensor_4478 blocks.11.ffn.time_mix_r tensor_4483 0=2
BinaryOp         1523                     2 1 tensor_4473 tensor_4483 tensor_4484 0=0
Reshape          1524                     1 1 tensor_4484 tensor_4485 0=0 1=1
Gemm             1525                     1 1 tensor_4485 tensor_4487 4=0 5=1 6=1 7=0 8=512 9=512 10=-1
Reshape          1526                     1 1 tensor_4487 tensor_4488 0=-1
Sigmoid          1527                     1 1 tensor_4488 tensor_4489
Reshape          1528                     1 1 tensor_4481 tensor_4490 0=0 1=1
Gemm             1529                     1 1 tensor_4490 tensor_4492 4=0 5=1 6=1 7=0 8=1792 9=512 10=-1
Reshape          1530                     1 1 tensor_4492 tensor_4493 0=-1
ReLU             1531                     1 1 tensor_4493 tensor_4494
BinaryOp         1532                     2 1 tensor_4494 tensor_4494 tensor_4495 0=2
Reshape          1533                     1 1 tensor_4495 tensor_4496 0=0 1=1
Gemm             1534                     1 1 tensor_4496 tensor_4498 4=0 5=1 6=1 7=0 8=512 9=1792 10=-1
Reshape          1535                     1 1 tensor_4498 tensor_4499 0=-1
BinaryOp         1536                     2 1 tensor_4489 tensor_4499 tensor_4500 0=2
BinaryOp         1537                     2 1 tensor_4470 tensor_4500 tensor_4501 0=0
Split            1538                     1 1 tensor_4474 output_state_11_2
Split            1539                     1 2 tensor_4501 tensor_4503 tensor_4504
LayerNorm        1540                     1 1 tensor_4503 tensor_4505 0=512 1=1.000000e-05 2=1
Split            1541                     1 3 tensor_4505 tensor_4506 tensor_4507 tensor_4508
Split            1542                     1 6 tensor_4506 tensor_4509 tensor_4510 tensor_4511 tensor_4512 tensor_4513 tensor_4514
BinaryOp         1543                     2 1 state_12_0 tensor_4507 tensor_4515 0=1
Split            1544                     1 6 tensor_4515 tensor_4516 tensor_4517 tensor_4518 tensor_4519 tensor_4520 tensor_4521
MemoryData       1545                     0 1 blocks.12.att.time_mix_x 0=512 21=0
BinaryOp         1546                     2 1 tensor_4516 blocks.12.att.time_mix_x tensor_4523 0=2
BinaryOp         1547                     2 1 tensor_4508 tensor_4523 tensor_4524 0=0
MemoryData       1548                     0 1 blocks.12.att.time_mix_w1 0=160 1=512 21=0
MatMul           1549                     2 1 tensor_4524 blocks.12.att.time_mix_w1 tensor_4526 0=0
TanH             1550                     1 1 tensor_4526 tensor_4527
Reshape          1551                     1 1 tensor_4527 tensor_4528 0=32 1=1 2=5
MemoryData       1552                     0 1 blocks.12.att.time_mix_w2 0=512 1=32 2=5 21=0
MatMul           1553                     2 1 tensor_4528 blocks.12.att.time_mix_w2 tensor_4530 0=0
Reshape          1554                     1 1 tensor_4530 tensor_4531 0=512 1=5
Slice            1555                     1 5 tensor_4531 tensor_4532 tensor_4533 tensor_4534 tensor_4535 tensor_4536 -23300=5,-233,-233,-233,-233,-233 1=0
Reshape          1556                     1 1 tensor_4532 tensor_4537 0=512
MemoryData       1557                     0 1 blocks.12.att.time_mix_w 0=512 21=0
BinaryOp         1558                     2 1 blocks.12.att.time_mix_w tensor_4537 tensor_4539 0=0
BinaryOp         1559                     2 1 tensor_4517 tensor_4539 tensor_4540 0=2
BinaryOp         1560                     2 1 tensor_4509 tensor_4540 tensor_4541 0=0
Reshape          1561                     1 1 tensor_4533 tensor_4542 0=512
MemoryData       1562                     0 1 blocks.12.att.time_mix_k 0=512 21=0
BinaryOp         1563                     2 1 blocks.12.att.time_mix_k tensor_4542 tensor_4544 0=0
BinaryOp         1564                     2 1 tensor_4518 tensor_4544 tensor_4545 0=2
BinaryOp         1565                     2 1 tensor_4510 tensor_4545 tensor_4546 0=0
Reshape          1566                     1 1 tensor_4534 tensor_4547 0=512
MemoryData       1567                     0 1 blocks.12.att.time_mix_v 0=512 21=0
BinaryOp         1568                     2 1 blocks.12.att.time_mix_v tensor_4547 tensor_4549 0=0
BinaryOp         1569                     2 1 tensor_4519 tensor_4549 tensor_4550 0=2
BinaryOp         1570                     2 1 tensor_4511 tensor_4550 tensor_4551 0=0
Reshape          1571                     1 1 tensor_4535 tensor_4552 0=512
MemoryData       1572                     0 1 blocks.12.att.time_mix_r 0=512 21=0
BinaryOp         1573                     2 1 blocks.12.att.time_mix_r tensor_4552 tensor_4554 0=0
BinaryOp         1574                     2 1 tensor_4520 tensor_4554 tensor_4555 0=2
BinaryOp         1575                     2 1 tensor_4512 tensor_4555 tensor_4556 0=0
Reshape          1576                     1 1 tensor_4536 tensor_4557 0=512
MemoryData       1577                     0 1 blocks.12.att.time_mix_g 0=512 21=0
BinaryOp         1578                     2 1 blocks.12.att.time_mix_g tensor_4557 tensor_4559 0=0
BinaryOp         1579                     2 1 tensor_4521 tensor_4559 tensor_4560 0=2
BinaryOp         1580                     2 1 tensor_4513 tensor_4560 tensor_4561 0=0
Reshape          1581                     1 1 tensor_4541 tensor_4562 0=0 1=1
Gemm             1582                     1 1 tensor_4562 tensor_4564 4=0 5=1 6=1 7=0 8=64 9=512 10=-1
Reshape          1583                     1 1 tensor_4564 tensor_4565 0=-1
TanH             1584                     1 1 tensor_4565 tensor_4566
Reshape          1585                     1 1 tensor_4566 tensor_4567 0=0 1=1
Gemm             1586                     1 1 tensor_4567 tensor_4569 4=0 5=1 6=1 7=0 8=512 9=64 10=-1
Reshape          1587                     1 1 tensor_4569 tensor_4570 0=-1
Reshape          1588                     1 1 tensor_4570 tensor_4571 0=1 1=64 2=8
MemoryData       1589                     0 1 blocks.12.att.time_decay 0=1 1=64 2=8 21=0
BinaryOp         1590                     2 1 blocks.12.att.time_decay tensor_4571 tensor_4573 0=0
Exp              1591                     1 1 tensor_4573 tensor_4574
BinaryOp         1592                     1 1 tensor_4574 tensor_4575 0=7 1=1 2=0.000000e+00
Exp              1593                     1 1 tensor_4575 tensor_4576
Reshape          1594                     1 1 tensor_4556 tensor_4577 0=0 1=1
Gemm             1595                     1 1 tensor_4577 tensor_4579 4=0 5=1 6=1 7=0 8=512 9=512 10=-1
Reshape          1596                     1 1 tensor_4579 tensor_4580 0=-1
Reshape          1597                     1 1 tensor_4580 tensor_4581 0=64 1=1 2=8
Reshape          1598                     1 1 tensor_4546 tensor_4582 0=0 1=1
Gemm             1599                     1 1 tensor_4582 tensor_4584 4=0 5=1 6=1 7=0 8=512 9=512 10=-1
Reshape          1600                     1 1 tensor_4584 tensor_4585 0=-1
Reshape          1601                     1 1 tensor_4585 tensor_4586 0=1 1=64 2=8
Reshape          1602                     1 1 tensor_4551 tensor_4587 0=0 1=1
Gemm             1603                     1 1 tensor_4587 tensor_4589 4=0 5=1 6=1 7=0 8=512 9=512 10=-1
Reshape          1604                     1 1 tensor_4589 tensor_4590 0=-1
Reshape          1605                     1 1 tensor_4590 tensor_4591 0=64 1=1 2=8
Reshape          1606                     1 1 tensor_4561 tensor_4592 0=0 1=1
Gemm             1607                     1 1 tensor_4592 tensor_4594 4=0 5=1 6=1 7=0 8=512 9=512 10=-1
Reshape          1608                     1 1 tensor_4594 tensor_4595 0=-1
Swish            1609                     1 1 tensor_4595 tensor_4596
MatMul           1610                     2 1 tensor_4586 tensor_4591 tensor_4597 0=0
Split            1611                     1 2 tensor_4597 tensor_4598 tensor_4599
Split            1612                     1 2 state_12_1 tensor_4600 tensor_4601
MemoryData       1613                     0 1 blocks.12.att.time_first 0=1 1=64 2=8 21=0
BinaryOp         1614                     2 1 tensor_4598 blocks.12.att.time_first tensor_4603 0=2
BinaryOp         1615                     2 1 tensor_4603 tensor_4600 tensor_4604 0=0
MatMul           1616                     2 1 tensor_4581 tensor_4604 tensor_4605 0=0
BinaryOp         1617                     2 1 tensor_4601 tensor_4576 tensor_4606 0=2
BinaryOp         1618                     2 1 tensor_4599 tensor_4606 tensor_4607 0=0
Reshape          1619                     1 1 tensor_4605 tensor_4608 0=512
GroupNorm        1620                     1 1 tensor_4608 tensor_4609 0=8 1=512 2=1.000000e-05 3=1
Reshape          1621                     1 1 tensor_4609 tensor_4610 0=512
BinaryOp         1622                     2 1 tensor_4610 tensor_4596 tensor_4611 0=2
Reshape          1623                     1 1 tensor_4611 tensor_4612 0=0 1=1
Gemm             1624                     1 1 tensor_4612 tensor_4614 4=0 5=1 6=1 7=0 8=512 9=512 10=-1
Reshape          1625                     1 1 tensor_4614 tensor_4615 0=-1
BinaryOp         1626                     2 1 tensor_4504 tensor_4615 tensor_4616 0=0
Split            1627                     1 1 tensor_4514 output_state_12_0
Split            1628                     1 1 tensor_4607 output_state_12_1
Split            1629                     1 2 tensor_4616 tensor_4619 tensor_4620
LayerNorm        1630                     1 1 tensor_4619 tensor_4621 0=512 1=1.000000e-05 2=1
Split            1631                     1 4 tensor_4621 tensor_4622 tensor_4623 tensor_4624 tensor_4625
BinaryOp         1632                     2 1 state_12_2 tensor_4625 tensor_4626 0=1
Split            1633                     1 2 tensor_4626 tensor_4627 tensor_4628
MemoryData       1634                     0 1 blocks.12.ffn.time_mix_k 0=512 21=0
BinaryOp         1635                     2 1 tensor_4627 blocks.12.ffn.time_mix_k tensor_4630 0=2
BinaryOp         1636                     2 1 tensor_4622 tensor_4630 tensor_4631 0=0
MemoryData       1637                     0 1 blocks.12.ffn.time_mix_r 0=512 21=0
BinaryOp         1638                     2 1 tensor_4628 blocks.12.ffn.time_mix_r tensor_4633 0=2
BinaryOp         1639                     2 1 tensor_4623 tensor_4633 tensor_4634 0=0
Reshape          1640                     1 1 tensor_4634 tensor_4635 0=0 1=1
Gemm             1641                     1 1 tensor_4635 tensor_4637 4=0 5=1 6=1 7=0 8=512 9=512 10=-1
Reshape          1642                     1 1 tensor_4637 tensor_4638 0=-1
Sigmoid          1643                     1 1 tensor_4638 tensor_4639
Reshape          1644                     1 1 tensor_4631 tensor_4640 0=0 1=1
Gemm             1645                     1 1 tensor_4640 tensor_4642 4=0 5=1 6=1 7=0 8=1792 9=512 10=-1
Reshape          1646                     1 1 tensor_4642 tensor_4643 0=-1
ReLU             1647                     1 1 tensor_4643 tensor_4644
BinaryOp         1648                     2 1 tensor_4644 tensor_4644 tensor_4645 0=2
Reshape          1649                     1 1 tensor_4645 tensor_4646 0=0 1=1
Gemm             1650                     1 1 tensor_4646 tensor_4648 4=0 5=1 6=1 7=0 8=512 9=1792 10=-1
Reshape          1651                     1 1 tensor_4648 tensor_4649 0=-1
BinaryOp         1652                     2 1 tensor_4639 tensor_4649 tensor_4650 0=2
BinaryOp         1653                     2 1 tensor_4620 tensor_4650 tensor_4651 0=0
Split            1654                     1 1 tensor_4624 output_state_12_2
Split            1655                     1 2 tensor_4651 tensor_4653 tensor_4654
LayerNorm        1656                     1 1 tensor_4653 tensor_4655 0=512 1=1.000000e-05 2=1
Split            1657                     1 3 tensor_4655 tensor_4656 tensor_4657 tensor_4658
Split            1658                     1 6 tensor_4656 tensor_4659 tensor_4660 tensor_4661 tensor_4662 tensor_4663 tensor_4664
BinaryOp         1659                     2 1 state_13_0 tensor_4657 tensor_4665 0=1
Split            1660                     1 6 tensor_4665 tensor_4666 tensor_4667 tensor_4668 tensor_4669 tensor_4670 tensor_4671
MemoryData       1661                     0 1 blocks.13.att.time_mix_x 0=512 21=0
BinaryOp         1662                     2 1 tensor_4666 blocks.13.att.time_mix_x tensor_4673 0=2
BinaryOp         1663                     2 1 tensor_4658 tensor_4673 tensor_4674 0=0
MemoryData       1664                     0 1 blocks.13.att.time_mix_w1 0=160 1=512 21=0
MatMul           1665                     2 1 tensor_4674 blocks.13.att.time_mix_w1 tensor_4676 0=0
TanH             1666                     1 1 tensor_4676 tensor_4677
Reshape          1667                     1 1 tensor_4677 tensor_4678 0=32 1=1 2=5
MemoryData       1668                     0 1 blocks.13.att.time_mix_w2 0=512 1=32 2=5 21=0
MatMul           1669                     2 1 tensor_4678 blocks.13.att.time_mix_w2 tensor_4680 0=0
Reshape          1670                     1 1 tensor_4680 tensor_4681 0=512 1=5
Slice            1671                     1 5 tensor_4681 tensor_4682 tensor_4683 tensor_4684 tensor_4685 tensor_4686 -23300=5,-233,-233,-233,-233,-233 1=0
Reshape          1672                     1 1 tensor_4682 tensor_4687 0=512
MemoryData       1673                     0 1 blocks.13.att.time_mix_w 0=512 21=0
BinaryOp         1674                     2 1 blocks.13.att.time_mix_w tensor_4687 tensor_4689 0=0
BinaryOp         1675                     2 1 tensor_4667 tensor_4689 tensor_4690 0=2
BinaryOp         1676                     2 1 tensor_4659 tensor_4690 tensor_4691 0=0
Reshape          1677                     1 1 tensor_4683 tensor_4692 0=512
MemoryData       1678                     0 1 blocks.13.att.time_mix_k 0=512 21=0
BinaryOp         1679                     2 1 blocks.13.att.time_mix_k tensor_4692 tensor_4694 0=0
BinaryOp         1680                     2 1 tensor_4668 tensor_4694 tensor_4695 0=2
BinaryOp         1681                     2 1 tensor_4660 tensor_4695 tensor_4696 0=0
Reshape          1682                     1 1 tensor_4684 tensor_4697 0=512
MemoryData       1683                     0 1 blocks.13.att.time_mix_v 0=512 21=0
BinaryOp         1684                     2 1 blocks.13.att.time_mix_v tensor_4697 tensor_4699 0=0
BinaryOp         1685                     2 1 tensor_4669 tensor_4699 tensor_4700 0=2
BinaryOp         1686                     2 1 tensor_4661 tensor_4700 tensor_4701 0=0
Reshape          1687                     1 1 tensor_4685 tensor_4702 0=512
MemoryData       1688                     0 1 blocks.13.att.time_mix_r 0=512 21=0
BinaryOp         1689                     2 1 blocks.13.att.time_mix_r tensor_4702 tensor_4704 0=0
BinaryOp         1690                     2 1 tensor_4670 tensor_4704 tensor_4705 0=2
BinaryOp         1691                     2 1 tensor_4662 tensor_4705 tensor_4706 0=0
Reshape          1692                     1 1 tensor_4686 tensor_4707 0=512
MemoryData       1693                     0 1 blocks.13.att.time_mix_g 0=512 21=0
BinaryOp         1694                     2 1 blocks.13.att.time_mix_g tensor_4707 tensor_4709 0=0
BinaryOp         1695                     2 1 tensor_4671 tensor_4709 tensor_4710 0=2
BinaryOp         1696                     2 1 tensor_4663 tensor_4710 tensor_4711 0=0
Reshape          1697                     1 1 tensor_4691 tensor_4712 0=0 1=1
Gemm             1698                     1 1 tensor_4712 tensor_4714 4=0 5=1 6=1 7=0 8=64 9=512 10=-1
Reshape          1699                     1 1 tensor_4714 tensor_4715 0=-1
TanH             1700                     1 1 tensor_4715 tensor_4716
Reshape          1701                     1 1 tensor_4716 tensor_4717 0=0 1=1
Gemm             1702                     1 1 tensor_4717 tensor_4719 4=0 5=1 6=1 7=0 8=512 9=64 10=-1
Reshape          1703                     1 1 tensor_4719 tensor_4720 0=-1
Reshape          1704                     1 1 tensor_4720 tensor_4721 0=1 1=64 2=8
MemoryData       1705                     0 1 blocks.13.att.time_decay 0=1 1=64 2=8 21=0
BinaryOp         1706                     2 1 blocks.13.att.time_decay tensor_4721 tensor_4723 0=0
Exp              1707                     1 1 tensor_4723 tensor_4724
BinaryOp         1708                     1 1 tensor_4724 tensor_4725 0=7 1=1 2=0.000000e+00
Exp              1709                     1 1 tensor_4725 tensor_4726
Reshape          1710                     1 1 tensor_4706 tensor_4727 0=0 1=1
Gemm             1711                     1 1 tensor_4727 tensor_4729 4=0 5=1 6=1 7=0 8=512 9=512 10=-1
Reshape          1712                     1 1 tensor_4729 tensor_4730 0=-1
Reshape          1713                     1 1 tensor_4730 tensor_4731 0=64 1=1 2=8
Reshape          1714                     1 1 tensor_4696 tensor_4732 0=0 1=1
Gemm             1715                     1 1 tensor_4732 tensor_4734 4=0 5=1 6=1 7=0 8=512 9=512 10=-1
Reshape          1716                     1 1 tensor_4734 tensor_4735 0=-1
Reshape          1717                     1 1 tensor_4735 tensor_4736 0=1 1=64 2=8
Reshape          1718                     1 1 tensor_4701 tensor_4737 0=0 1=1
Gemm             1719                     1 1 tensor_4737 tensor_4739 4=0 5=1 6=1 7=0 8=512 9=512 10=-1
Reshape          1720                     1 1 tensor_4739 tensor_4740 0=-1
Reshape          1721                     1 1 tensor_4740 tensor_4741 0=64 1=1 2=8
Reshape          1722                     1 1 tensor_4711 tensor_4742 0=0 1=1
Gemm             1723                     1 1 tensor_4742 tensor_4744 4=0 5=1 6=1 7=0 8=512 9=512 10=-1
Reshape          1724                     1 1 tensor_4744 tensor_4745 0=-1
Swish            1725                     1 1 tensor_4745 tensor_4746
MatMul           1726                     2 1 tensor_4736 tensor_4741 tensor_4747 0=0
Split            1727                     1 2 tensor_4747 tensor_4748 tensor_4749
Split            1728                     1 2 state_13_1 tensor_4750 tensor_4751
MemoryData       1729                     0 1 blocks.13.att.time_first 0=1 1=64 2=8 21=0
BinaryOp         1730                     2 1 tensor_4748 blocks.13.att.time_first tensor_4753 0=2
BinaryOp         1731                     2 1 tensor_4753 tensor_4750 tensor_4754 0=0
MatMul           1732                     2 1 tensor_4731 tensor_4754 tensor_4755 0=0
BinaryOp         1733                     2 1 tensor_4751 tensor_4726 tensor_4756 0=2
BinaryOp         1734                     2 1 tensor_4749 tensor_4756 tensor_4757 0=0
Reshape          1735                     1 1 tensor_4755 tensor_4758 0=512
GroupNorm        1736                     1 1 tensor_4758 tensor_4759 0=8 1=512 2=1.000000e-05 3=1
Reshape          1737                     1 1 tensor_4759 tensor_4760 0=512
BinaryOp         1738                     2 1 tensor_4760 tensor_4746 tensor_4761 0=2
Reshape          1739                     1 1 tensor_4761 tensor_4762 0=0 1=1
Gemm             1740                     1 1 tensor_4762 tensor_4764 4=0 5=1 6=1 7=0 8=512 9=512 10=-1
Reshape          1741                     1 1 tensor_4764 tensor_4765 0=-1
BinaryOp         1742                     2 1 tensor_4654 tensor_4765 tensor_4766 0=0
Split            1743                     1 1 tensor_4664 output_state_13_0
Split            1744                     1 1 tensor_4757 output_state_13_1
Split            1745                     1 2 tensor_4766 tensor_4769 tensor_4770
LayerNorm        1746                     1 1 tensor_4769 tensor_4771 0=512 1=1.000000e-05 2=1
Split            1747                     1 4 tensor_4771 tensor_4772 tensor_4773 tensor_4774 tensor_4775
BinaryOp         1748                     2 1 state_13_2 tensor_4775 tensor_4776 0=1
Split            1749                     1 2 tensor_4776 tensor_4777 tensor_4778
MemoryData       1750                     0 1 blocks.13.ffn.time_mix_k 0=512 21=0
BinaryOp         1751                     2 1 tensor_4777 blocks.13.ffn.time_mix_k tensor_4780 0=2
BinaryOp         1752                     2 1 tensor_4772 tensor_4780 tensor_4781 0=0
MemoryData       1753                     0 1 blocks.13.ffn.time_mix_r 0=512 21=0
BinaryOp         1754                     2 1 tensor_4778 blocks.13.ffn.time_mix_r tensor_4783 0=2
BinaryOp         1755                     2 1 tensor_4773 tensor_4783 tensor_4784 0=0
Reshape          1756                     1 1 tensor_4784 tensor_4785 0=0 1=1
Gemm             1757                     1 1 tensor_4785 tensor_4787 4=0 5=1 6=1 7=0 8=512 9=512 10=-1
Reshape          1758                     1 1 tensor_4787 tensor_4788 0=-1
Sigmoid          1759                     1 1 tensor_4788 tensor_4789
…
BinaryOp         2358                     2 1 tensor_5566 blocks.19.att.time_mix_x tensor_5573 0=2
BinaryOp         2359                     2 1 tensor_5558 tensor_5573 tensor_5574 0=0
MemoryData       2360                     0 1 blocks.19.att.time_mix_w1 0=160 1=512 21=0
MatMul           2361                     2 1 tensor_5574 blocks.19.att.time_mix_w1 tensor_5576 0=0
TanH             2362                     1 1 tensor_5576 tensor_5577
Reshape          2363                     1 1 tensor_5577 tensor_5578 0=32 1=1 2=5
MemoryData       2364                     0 1 blocks.19.att.time_mix_w2 0=512 1=32 2=5 21=0
MatMul           2365                     2 1 tensor_5578 blocks.19.att.time_mix_w2 tensor_5580 0=0
Reshape          2366                     1 1 tensor_5580 tensor_5581 0=512 1=5
Slice            2367                     1 5 tensor_5581 tensor_5582 tensor_5583 tensor_5584 tensor_5585 tensor_5586 -23300=5,-233,-233,-233,-233,-233 1=0
Reshape          2368                     1 1 tensor_5582 tensor_5587 0=512
MemoryData       2369                     0 1 blocks.19.att.time_mix_w 0=512 21=0
BinaryOp         2370                     2 1 blocks.19.att.time_mix_w tensor_5587 tensor_5589 0=0
BinaryOp         2371                     2 1 tensor_5567 tensor_5589 tensor_5590 0=2
BinaryOp         2372                     2 1 tensor_5559 tensor_5590 tensor_5591 0=0
Reshape          2373                     1 1 tensor_5583 tensor_5592 0=512
MemoryData       2374                     0 1 blocks.19.att.time_mix_k 0=512 21=0
BinaryOp         2375                     2 1 blocks.19.att.time_mix_k tensor_5592 tensor_5594 0=0
BinaryOp         2376                     2 1 tensor_5568 tensor_5594 tensor_5595 0=2
BinaryOp         2377                     2 1 tensor_5560 tensor_5595 tensor_5596 0=0
Reshape          2378                     1 1 tensor_5584 tensor_5597 0=512
MemoryData       2379                     0 1 blocks.19.att.time_mix_v 0=512 21=0
BinaryOp         2380                     2 1 blocks.19.att.time_mix_v tensor_5597 tensor_5599 0=0
BinaryOp         2381                     2 1 tensor_5569 tensor_5599 tensor_5600 0=2
BinaryOp         2382                     2 1 tensor_5561 tensor_5600 tensor_5601 0=0
Reshape          2383                     1 1 tensor_5585 tensor_5602 0=512
MemoryData       2384                     0 1 blocks.19.att.time_mix_r 0=512 21=0
BinaryOp         2385                     2 1 blocks.19.att.time_mix_r tensor_5602 tensor_5604 0=0
BinaryOp         2386                     2 1 tensor_5570 tensor_5604 tensor_5605 0=2
BinaryOp         2387                     2 1 tensor_5562 tensor_5605 tensor_5606 0=0
Reshape          2388                     1 1 tensor_5586 tensor_5607 0=512
MemoryData       2389                     0 1 blocks.19.att.time_mix_g 0=512 21=0
BinaryOp         2390                     2 1 blocks.19.att.time_mix_g tensor_5607 tensor_5609 0=0
BinaryOp         2391                     2 1 tensor_5571 tensor_5609 tensor_5610 0=2
BinaryOp         2392                     2 1 tensor_5563 tensor_5610 tensor_5611 0=0
Reshape          2393                     1 1 tensor_5591 tensor_5612 0=0 1=1
Gemm             2394                     1 1 tensor_5612 tensor_5614 4=0 5=1 6=1 7=0 8=64 9=512 10=-1
Reshape          2395                     1 1 tensor_5614 tensor_5615 0=-1
TanH             2396                     1 1 tensor_5615 tensor_5616
Reshape          2397                     1 1 tensor_5616 tensor_5617 0=0 1=1
Gemm             2398                     1 1 tensor_5617 tensor_5619 4=0 5=1 6=1 7=0 8=512 9=64 10=-1
Reshape          2399                     1 1 tensor_5619 tensor_5620 0=-1
Reshape          2400                     1 1 tensor_5620 tensor_5621 0=1 1=64 2=8
MemoryData       2401                     0 1 blocks.19.att.time_decay 0=1 1=64 2=8 21=0
BinaryOp         2402                     2 1 blocks.19.att.time_decay tensor_5621 tensor_5623 0=0
Exp              2403                     1 1 tensor_5623 tensor_5624
BinaryOp         2404                     1 1 tensor_5624 tensor_5625 0=7 1=1 2=0.000000e+00
Exp              2405                     1 1 tensor_5625 tensor_5626
Reshape          2406                     1 1 tensor_5606 tensor_5627 0=0 1=1
Gemm             2407                     1 1 tensor_5627 tensor_5629 4=0 5=1 6=1 7=0 8=512 9=512 10=-1
Reshape          2408                     1 1 tensor_5629 tensor_5630 0=-1
Reshape          2409                     1 1 tensor_5630 tensor_5631 0=64 1=1 2=8
Reshape          2410                     1 1 tensor_5596 tensor_5632 0=0 1=1
Gemm             2411                     1 1 tensor_5632 tensor_5634 4=0 5=1 6=1 7=0 8=512 9=512 10=-1
Reshape          2412                     1 1 tensor_5634 tensor_5635 0=-1
Reshape          2413                     1 1 tensor_5635 tensor_5636 0=1 1=64 2=8
Reshape          2414                     1 1 tensor_5601 tensor_5637 0=0 1=1
Gemm             2415                     1 1 tensor_5637 tensor_5639 4=0 5=1 6=1 7=0 8=512 9=512 10=-1
Reshape          2416                     1 1 tensor_5639 tensor_5640 0=-1
Reshape          2417                     1 1 tensor_5640 tensor_5641 0=64 1=1 2=8
Reshape          2418                     1 1 tensor_5611 tensor_5642 0=0 1=1
Gemm             2419                     1 1 tensor_5642 tensor_5644 4=0 5=1 6=1 7=0 8=512 9=512 10=-1
Reshape          2420                     1 1 tensor_5644 tensor_5645 0=-1
Swish            2421                     1 1 tensor_5645 tensor_5646
MatMul           2422                     2 1 tensor_5636 tensor_5641 tensor_5647 0=0
Split            2423                     1 2 tensor_5647 tensor_5648 tensor_5649
Split            2424                     1 2 state_19_1 tensor_5650 tensor_5651
MemoryData       2425                     0 1 blocks.19.att.time_first 0=1 1=64 2=8 21=0
BinaryOp         2426                     2 1 tensor_5648 blocks.19.att.time_first tensor_5653 0=2
BinaryOp         2427                     2 1 tensor_5653 tensor_5650 tensor_5654 0=0
MatMul           2428                     2 1 tensor_5631 tensor_5654 tensor_5655 0=0
BinaryOp         2429                     2 1 tensor_5651 tensor_5626 tensor_5656 0=2
BinaryOp         2430                     2 1 tensor_5649 tensor_5656 tensor_5657 0=0
Reshape          2431                     1 1 tensor_5655 tensor_5658 0=512
GroupNorm        2432                     1 1 tensor_5658 tensor_5659 0=8 1=512 2=1.000000e-05 3=1
Reshape          2433                     1 1 tensor_5659 tensor_5660 0=512
BinaryOp         2434                     2 1 tensor_5660 tensor_5646 tensor_5661 0=2
Reshape          2435                     1 1 tensor_5661 tensor_5662 0=0 1=1
Gemm             2436                     1 1 tensor_5662 tensor_5664 4=0 5=1 6=1 7=0 8=512 9=512 10=-1
Reshape          2437                     1 1 tensor_5664 tensor_5665 0=-1
BinaryOp         2438                     2 1 tensor_5554 tensor_5665 tensor_5666 0=0
Split            2439                     1 1 tensor_5564 output_state_19_0
Split            2440                     1 1 tensor_5657 output_state_19_1
Split            2441                     1 2 tensor_5666 tensor_5669 tensor_5670
LayerNorm        2442                     1 1 tensor_5669 tensor_5671 0=512 1=1.000000e-05 2=1
Split            2443                     1 4 tensor_5671 tensor_5672 tensor_5673 tensor_5674 tensor_5675
BinaryOp         2444                     2 1 state_19_2 tensor_5675 tensor_5676 0=1
Split            2445                     1 2 tensor_5676 tensor_5677 tensor_5678
MemoryData       2446                     0 1 blocks.19.ffn.time_mix_k 0=512 21=0
BinaryOp         2447                     2 1 tensor_5677 blocks.19.ffn.time_mix_k tensor_5680 0=2
BinaryOp         2448                     2 1 tensor_5672 tensor_5680 tensor_5681 0=0
MemoryData       2449                     0 1 blocks.19.ffn.time_mix_r 0=512 21=0
BinaryOp         2450                     2 1 tensor_5678 blocks.19.ffn.time_mix_r tensor_5683 0=2
BinaryOp         2451                     2 1 tensor_5673 tensor_5683 tensor_5684 0=0
Reshape          2452                     1 1 tensor_5684 tensor_5685 0=0 1=1
Gemm             2453                     1 1 tensor_5685 tensor_5687 4=0 5=1 6=1 7=0 8=512 9=512 10=-1
Reshape          2454                     1 1 tensor_5687 tensor_5688 0=-1
Sigmoid          2455                     1 1 tensor_5688 tensor_5689
Reshape          2456                     1 1 tensor_5681 tensor_5690 0=0 1=1
Gemm             2457                     1 1 tensor_5690 tensor_5692 4=0 5=1 6=1 7=0 8=1792 9=512 10=-1
Reshape          2458                     1 1 tensor_5692 tensor_5693 0=-1
ReLU             2459                     1 1 tensor_5693 tensor_5694
BinaryOp         2460                     2 1 tensor_5694 tensor_5694 tensor_5695 0=2
Reshape          2461                     1 1 tensor_5695 tensor_5696 0=0 1=1
Gemm             2462                     1 1 tensor_5696 tensor_5698 4=0 5=1 6=1 7=0 8=512 9=1792 10=-1
Reshape          2463                     1 1 tensor_5698 tensor_5699 0=-1
BinaryOp         2464                     2 1 tensor_5689 tensor_5699 tensor_5700 0=2
BinaryOp         2465                     2 1 tensor_5670 tensor_5700 tensor_5701 0=0
Split            2466                     1 1 tensor_5674 output_state_19_2
Split            2467                     1 2 tensor_5701 tensor_5703 tensor_5704
LayerNorm        2468                     1 1 tensor_5703 tensor_5705 0=512 1=1.000000e-05 2=1
Split            2469                     1 3 tensor_5705 tensor_5706 tensor_5707 tensor_5708
Split            2470                     1 6 tensor_5706 tensor_5709 tensor_5710 tensor_5711 tensor_5712 tensor_5713 tensor_5714
BinaryOp         2471                     2 1 state_20_0 tensor_5707 tensor_5715 0=1
Split            2472                     1 6 tensor_5715 tensor_5716 tensor_5717 tensor_5718 tensor_5719 tensor_5720 tensor_5721
MemoryData       2473                     0 1 blocks.20.att.time_mix_x 0=512 21=0
BinaryOp         2474                     2 1 tensor_5716 blocks.20.att.time_mix_x tensor_5723 0=2
BinaryOp         2475                     2 1 tensor_5708 tensor_5723 tensor_5724 0=0
MemoryData       2476                     0 1 blocks.20.att.time_mix_w1 0=160 1=512 21=0
MatMul           2477                     2 1 tensor_5724 blocks.20.att.time_mix_w1 tensor_5726 0=0
TanH             2478                     1 1 tensor_5726 tensor_5727
Reshape          2479                     1 1 tensor_5727 tensor_5728 0=32 1=1 2=5
MemoryData       2480                     0 1 blocks.20.att.time_mix_w2 0=512 1=32 2=5 21=0
MatMul           2481                     2 1 tensor_5728 blocks.20.att.time_mix_w2 tensor_5730 0=0
Reshape          2482                     1 1 tensor_5730 tensor_5731 0=512 1=5
Slice            2483                     1 5 tensor_5731 tensor_5732 tensor_5733 tensor_5734 tensor_5735 tensor_5736 -23300=5,-233,-233,-233,-233,-233 1=0
Reshape          2484                     1 1 tensor_5732 tensor_5737 0=512
MemoryData       2485                     0 1 blocks.20.att.time_mix_w 0=512 21=0
BinaryOp         2486                     2 1 blocks.20.att.time_mix_w tensor_5737 tensor_5739 0=0
BinaryOp         2487                     2 1 tensor_5717 tensor_5739 tensor_5740 0=2
BinaryOp         2488                     2 1 tensor_5709 tensor_5740 tensor_5741 0=0
Reshape          2489                     1 1 tensor_5733 tensor_5742 0=512
MemoryData       2490                     0 1 blocks.20.att.time_mix_k 0=512 21=0
BinaryOp         2491                     2 1 blocks.20.att.time_mix_k tensor_5742 tensor_5744 0=0
BinaryOp         2492                     2 1 tensor_5718 tensor_5744 tensor_5745 0=2
BinaryOp         2493                     2 1 tensor_5710 tensor_5745 tensor_5746 0=0
Reshape          2494                     1 1 tensor_5734 tensor_5747 0=512
MemoryData       2495                     0 1 blocks.20.att.time_mix_v 0=512 21=0
BinaryOp         2496                     2 1 blocks.20.att.time_mix_v tensor_5747 tensor_5749 0=0
BinaryOp         2497                     2 1 tensor_5719 tensor_5749 tensor_5750 0=2
BinaryOp         2498                     2 1 tensor_5711 tensor_5750 tensor_5751 0=0
Reshape          2499                     1 1 tensor_5735 tensor_5752 0=512
MemoryData       2500                     0 1 blocks.20.att.time_mix_r 0=512 21=0
BinaryOp         2501                     2 1 blocks.20.att.time_mix_r tensor_5752 tensor_5754 0=0
BinaryOp         2502                     2 1 tensor_5720 tensor_5754 tensor_5755 0=2
BinaryOp         2503                     2 1 tensor_5712 tensor_5755 tensor_5756 0=0
Reshape          2504                     1 1 tensor_5736 tensor_5757 0=512
MemoryData       2505                     0 1 blocks.20.att.time_mix_g 0=512 21=0
BinaryOp         2506                     2 1 blocks.20.att.time_mix_g tensor_5757 tensor_5759 0=0
BinaryOp         2507                     2 1 tensor_5721 tensor_5759 tensor_5760 0=2
BinaryOp         2508                     2 1 tensor_5713 tensor_5760 tensor_5761 0=0
Reshape          2509                     1 1 tensor_5741 tensor_5762 0=0 1=1
Gemm             2510                     1 1 tensor_5762 tensor_5764 4=0 5=1 6=1 7=0 8=64 9=512 10=-1
Reshape          2511                     1 1 tensor_5764 tensor_5765 0=-1
TanH             2512                     1 1 tensor_5765 tensor_5766
Reshape          2513                     1 1 tensor_5766 tensor_5767 0=0 1=1
Gemm             2514                     1 1 tensor_5767 tensor_5769 4=0 5=1 6=1 7=0 8=512 9=64 10=-1
Reshape          2515                     1 1 tensor_5769 tensor_5770 0=-1
Reshape          2516                     1 1 tensor_5770 tensor_5771 0=1 1=64 2=8
MemoryData       2517                     0 1 blocks.20.att.time_decay 0=1 1=64 2=8 21=0
BinaryOp         2518                     2 1 blocks.20.att.time_decay tensor_5771 tensor_5773 0=0
Exp              2519                     1 1 tensor_5773 tensor_5774
BinaryOp         2520                     1 1 tensor_5774 tensor_5775 0=7 1=1 2=0.000000e+00
Exp              2521                     1 1 tensor_5775 tensor_5776
Reshape          2522                     1 1 tensor_5756 tensor_5777 0=0 1=1
Gemm             2523                     1 1 tensor_5777 tensor_5779 4=0 5=1 6=1 7=0 8=512 9=512 10=-1
Reshape          2524                     1 1 tensor_5779 tensor_5780 0=-1
Reshape          2525                     1 1 tensor_5780 tensor_5781 0=64 1=1 2=8
Reshape          2526                     1 1 tensor_5746 tensor_5782 0=0 1=1
Gemm             2527                     1 1 tensor_5782 tensor_5784 4=0 5=1 6=1 7=0 8=512 9=512 10=-1
Reshape          2528                     1 1 tensor_5784 tensor_5785 0=-1
Reshape          2529                     1 1 tensor_5785 tensor_5786 0=1 1=64 2=8
Reshape          2530                     1 1 tensor_5751 tensor_5787 0=0 1=1
Gemm             2531                     1 1 tensor_5787 tensor_5789 4=0 5=1 6=1 7=0 8=512 9=512 10=-1
Reshape          2532                     1 1 tensor_5789 tensor_5790 0=-1
Reshape          2533                     1 1 tensor_5790 tensor_5791 0=64 1=1 2=8
Reshape          2534                     1 1 tensor_5761 tensor_5792 0=0 1=1
Gemm             2535                     1 1 tensor_5792 tensor_5794 4=0 5=1 6=1 7=0 8=512 9=512 10=-1
Reshape          2536                     1 1 tensor_5794 tensor_5795 0=-1
Swish            2537                     1 1 tensor_5795 tensor_5796
MatMul           2538                     2 1 tensor_5786 tensor_5791 tensor_5797 0=0
Split            2539                     1 2 tensor_5797 tensor_5798 tensor_5799
Split            2540                     1 2 state_20_1 tensor_5800 tensor_5801
MemoryData       2541                     0 1 blocks.20.att.time_first 0=1 1=64 2=8 21=0
BinaryOp         2542                     2 1 tensor_5798 blocks.20.att.time_first tensor_5803 0=2
BinaryOp         2543                     2 1 tensor_5803 tensor_5800 tensor_5804 0=0
MatMul           2544                     2 1 tensor_5781 tensor_5804 tensor_5805 0=0
BinaryOp         2545                     2 1 tensor_5801 tensor_5776 tensor_5806 0=2
BinaryOp         2546                     2 1 tensor_5799 tensor_5806 tensor_5807 0=0
Reshape          2547                     1 1 tensor_5805 tensor_5808 0=512
GroupNorm        2548                     1 1 tensor_5808 tensor_5809 0=8 1=512 2=1.000000e-05 3=1
Reshape          2549                     1 1 tensor_5809 tensor_5810 0=512
BinaryOp         2550                     2 1 tensor_5810 tensor_5796 tensor_5811 0=2
Reshape          2551                     1 1 tensor_5811 tensor_5812 0=0 1=1
Gemm             2552                     1 1 tensor_5812 tensor_5814 4=0 5=1 6=1 7=0 8=512 9=512 10=-1
Reshape          2553                     1 1 tensor_5814 tensor_5815 0=-1
BinaryOp         2554                     2 1 tensor_5704 tensor_5815 tensor_5816 0=0
Split            2555                     1 1 tensor_5714 output_state_20_0
Split            2556                     1 1 tensor_5807 output_state_20_1
Split            2557                     1 2 tensor_5816 tensor_5819 tensor_5820
LayerNorm        2558                     1 1 tensor_5819 tensor_5821 0=512 1=1.000000e-05 2=1
Split            2559                     1 4 tensor_5821 tensor_5822 tensor_5823 tensor_5824 tensor_5825
BinaryOp         2560                     2 1 state_20_2 tensor_5825 tensor_5826 0=1
Split            2561                     1 2 tensor_5826 tensor_5827 tensor_5828
MemoryData       2562                     0 1 blocks.20.ffn.time_mix_k 0=512 21=0
BinaryOp         2563                     2 1 tensor_5827 blocks.20.ffn.time_mix_k tensor_5830 0=2
BinaryOp         2564                     2 1 tensor_5822 tensor_5830 tensor_5831 0=0
MemoryData       2565                     0 1 blocks.20.ffn.time_mix_r 0=512 21=0
BinaryOp         2566                     2 1 tensor_5828 blocks.20.ffn.time_mix_r tensor_5833 0=2
BinaryOp         2567                     2 1 tensor_5823 tensor_5833 tensor_5834 0=0
Reshape          2568                     1 1 tensor_5834 tensor_5835 0=0 1=1
Gemm             2569                     1 1 tensor_5835 tensor_5837 4=0 5=1 6=1 7=0 8=512 9=512 10=-1
Reshape          2570                     1 1 tensor_5837 tensor_5838 0=-1
Sigmoid          2571                     1 1 tensor_5838 tensor_5839
Reshape          2572                     1 1 tensor_5831 tensor_5840 0=0 1=1
Gemm             2573                     1 1 tensor_5840 tensor_5842 4=0 5=1 6=1 7=0 8=1792 9=512 10=-1
Reshape          2574                     1 1 tensor_5842 tensor_5843 0=-1
ReLU             2575                     1 1 tensor_5843 tensor_5844
BinaryOp         2576                     2 1 tensor_5844 tensor_5844 tensor_5845 0=2
Reshape          2577                     1 1 tensor_5845 tensor_5846 0=0 1=1
Gemm             2578                     1 1 tensor_5846 tensor_5848 4=0 5=1 6=1 7=0 8=512 9=1792 10=-1
Reshape          2579                     1 1 tensor_5848 tensor_5849 0=-1
BinaryOp         2580                     2 1 tensor_5839 tensor_5849 tensor_5850 0=2
BinaryOp         2581                     2 1 tensor_5820 tensor_5850 tensor_5851 0=0
Split            2582                     1 1 tensor_5824 output_state_20_2
Split            2583                     1 2 tensor_5851 tensor_5853 tensor_5854
LayerNorm        2584                     1 1 tensor_5853 tensor_5855 0=512 1=1.000000e-05 2=1
Split            2585                     1 3 tensor_5855 tensor_5856 tensor_5857 tensor_5858
Split            2586                     1 6 tensor_5856 tensor_5859 tensor_5860 tensor_5861 tensor_5862 tensor_5863 tensor_5864
BinaryOp         2587                     2 1 state_21_0 tensor_5857 tensor_5865 0=1
Split            2588                     1 6 tensor_5865 tensor_5866 tensor_5867 tensor_5868 tensor_5869 tensor_5870 tensor_5871
MemoryData       2589                     0 1 blocks.21.att.time_mix_x 0=512 21=0
BinaryOp         2590                     2 1 tensor_5866 blocks.21.att.time_mix_x tensor_5873 0=2
BinaryOp         2591                     2 1 tensor_5858 tensor_5873 tensor_5874 0=0
MemoryData       2592                     0 1 blocks.21.att.time_mix_w1 0=160 1=512 21=0
MatMul           2593                     2 1 tensor_5874 blocks.21.att.time_mix_w1 tensor_5876 0=0
TanH             2594                     1 1 tensor_5876 tensor_5877
Reshape          2595                     1 1 tensor_5877 tensor_5878 0=32 1=1 2=5
MemoryData       2596                     0 1 blocks.21.att.time_mix_w2 0=512 1=32 2=5 21=0
MatMul           2597                     2 1 tensor_5878 blocks.21.att.time_mix_w2 tensor_5880 0=0
Reshape          2598                     1 1 tensor_5880 tensor_5881 0=512 1=5
Slice            2599                     1 5 tensor_5881 tensor_5882 tensor_5883 tensor_5884 tensor_5885 tensor_5886 -23300=5,-233,-233,-233,-233,-233 1=0
Reshape          2600                     1 1 tensor_5882 tensor_5887 0=512
MemoryData       2601                     0 1 blocks.21.att.time_mix_w 0=512 21=0
BinaryOp         2602                     2 1 blocks.21.att.time_mix_w tensor_5887 tensor_5889 0=0
BinaryOp         2603                     2 1 tensor_5867 tensor_5889 tensor_5890 0=2
BinaryOp         2604                     2 1 tensor_5859 tensor_5890 tensor_5891 0=0
Reshape          2605                     1 1 tensor_5883 tensor_5892 0=512
MemoryData       2606                     0 1 blocks.21.att.time_mix_k 0=512 21=0
BinaryOp         2607                     2 1 blocks.21.att.time_mix_k tensor_5892 tensor_5894 0=0
BinaryOp         2608                     2 1 tensor_5868 tensor_5894 tensor_5895 0=2
BinaryOp         2609                     2 1 tensor_5860 tensor_5895 tensor_5896 0=0
Reshape          2610                     1 1 tensor_5884 tensor_5897 0=512
MemoryData       2611                     0 1 blocks.21.att.time_mix_v 0=512 21=0
BinaryOp         2612                     2 1 blocks.21.att.time_mix_v tensor_5897 tensor_5899 0=0
BinaryOp         2613                     2 1 tensor_5869 tensor_5899 tensor_5900 0=2
BinaryOp         2614                     2 1 tensor_5861 tensor_5900 tensor_5901 0=0
Reshape          2615                     1 1 tensor_5885 tensor_5902 0=512
MemoryData       2616                     0 1 blocks.21.att.time_mix_r 0=512 21=0
BinaryOp         2617                     2 1 blocks.21.att.time_mix_r tensor_5902 tensor_5904 0=0
BinaryOp         2618                     2 1 tensor_5870 tensor_5904 tensor_5905 0=2
BinaryOp         2619                     2 1 tensor_5862 tensor_5905 tensor_5906 0=0
Reshape          2620                     1 1 tensor_5886 tensor_5907 0=512
MemoryData       2621                     0 1 blocks.21.att.time_mix_g 0=512 21=0
BinaryOp         2622                     2 1 blocks.21.att.time_mix_g tensor_5907 tensor_5909 0=0
BinaryOp         2623                     2 1 tensor_5871 tensor_5909 tensor_5910 0=2
BinaryOp         2624                     2 1 tensor_5863 tensor_5910 tensor_5911 0=0
Reshape          2625                     1 1 tensor_5891 tensor_5912 0=0 1=1
Gemm             2626                     1 1 tensor_5912 tensor_5914 4=0 5=1 6=1 7=0 8=64 9=512 10=-1
Reshape          2627                     1 1 tensor_5914 tensor_5915 0=-1
TanH             2628                     1 1 tensor_5915 tensor_5916
Reshape          2629                     1 1 tensor_5916 tensor_5917 0=0 1=1
Gemm             2630                     1 1 tensor_5917 tensor_5919 4=0 5=1 6=1 7=0 8=512 9=64 10=-1
Reshape          2631                     1 1 tensor_5919 tensor_5920 0=-1
Reshape          2632                     1 1 tensor_5920 tensor_5921 0=1 1=64 2=8
MemoryData       2633                     0 1 blocks.21.att.time_decay 0=1 1=64 2=8 21=0
BinaryOp         2634                     2 1 blocks.21.att.time_decay tensor_5921 tensor_5923 0=0
Exp              2635                     1 1 tensor_5923 tensor_5924
BinaryOp         2636                     1 1 tensor_5924 tensor_5925 0=7 1=1 2=0.000000e+00
Exp              2637                     1 1 tensor_5925 tensor_5926
Reshape          2638                     1 1 tensor_5906 tensor_5927 0=0 1=1
Gemm             2639                     1 1 tensor_5927 tensor_5929 4=0 5=1 6=1 7=0 8=512 9=512 10=-1
Reshape          2640                     1 1 tensor_5929 tensor_5930 0=-1
Reshape          2641                     1 1 tensor_5930 tensor_5931 0=64 1=1 2=8
Reshape          2642                     1 1 tensor_5896 tensor_5932 0=0 1=1
Gemm             2643                     1 1 tensor_5932 tensor_5934 4=0 5=1 6=1 7=0 8=512 9=512 10=-1
Reshape          2644                     1 1 tensor_5934 tensor_5935 0=-1
Reshape          2645                     1 1 tensor_5935 tensor_5936 0=1 1=64 2=8
Reshape          2646                     1 1 tensor_5901 tensor_5937 0=0 1=1
Gemm             2647                     1 1 tensor_5937 tensor_5939 4=0 5=1 6=1 7=0 8=512 9=512 10=-1
Reshape          2648                     1 1 tensor_5939 tensor_5940 0=-1
Reshape          2649                     1 1 tensor_5940 tensor_5941 0=64 1=1 2=8
Reshape          2650                     1 1 tensor_5911 tensor_5942 0=0 1=1
Gemm             2651                     1 1 tensor_5942 tensor_5944 4=0 5=1 6=1 7=0 8=512 9=512 10=-1
Reshape          2652                     1 1 tensor_5944 tensor_5945 0=-1
Swish            2653                     1 1 tensor_5945 tensor_5946
MatMul           2654                     2 1 tensor_5936 tensor_5941 tensor_5947 0=0
Split            2655                     1 2 tensor_5947 tensor_5948 tensor_5949
Split            2656                     1 2 state_21_1 tensor_5950 tensor_5951
MemoryData       2657                     0 1 blocks.21.att.time_first 0=1 1=64 2=8 21=0
BinaryOp         2658                     2 1 tensor_5948 blocks.21.att.time_first tensor_5953 0=2
BinaryOp         2659                     2 1 tensor_5953 tensor_5950 tensor_5954 0=0
MatMul           2660                     2 1 tensor_5931 tensor_5954 tensor_5955 0=0
BinaryOp         2661                     2 1 tensor_5951 tensor_5926 tensor_5956 0=2
BinaryOp         2662                     2 1 tensor_5949 tensor_5956 tensor_5957 0=0
Reshape          2663                     1 1 tensor_5955 tensor_5958 0=512
GroupNorm        2664                     1 1 tensor_5958 tensor_5959 0=8 1=512 2=1.000000e-05 3=1
Reshape          2665                     1 1 tensor_5959 tensor_5960 0=512
BinaryOp         2666                     2 1 tensor_5960 tensor_5946 tensor_5961 0=2
Reshape          2667                     1 1 tensor_5961 tensor_5962 0=0 1=1
Gemm             2668                     1 1 tensor_5962 tensor_5964 4=0 5=1 6=1 7=0 8=512 9=512 10=-1
Reshape          2669                     1 1 tensor_5964 tensor_5965 0=-1
BinaryOp         2670                     2 1 tensor_5854 tensor_5965 tensor_5966 0=0
Split            2671                     1 1 tensor_5864 output_state_21_0
Split            2672                     1 1 tensor_5957 output_state_21_1
Split            2673                     1 2 tensor_5966 tensor_5969 tensor_5970
LayerNorm        2674                     1 1 tensor_5969 tensor_5971 0=512 1=1.000000e-05 2=1
Split            2675                     1 4 tensor_5971 tensor_5972 tensor_5973 tensor_5974 tensor_5975
BinaryOp         2676                     2 1 state_21_2 tensor_5975 tensor_5976 0=1
Split            2677                     1 2 tensor_5976 tensor_5977 tensor_5978
MemoryData       2678                     0 1 blocks.21.ffn.time_mix_k 0=512 21=0
BinaryOp         2679                     2 1 tensor_5977 blocks.21.ffn.time_mix_k tensor_5980 0=2
BinaryOp         2680                     2 1 tensor_5972 tensor_5980 tensor_5981 0=0
MemoryData       2681                     0 1 blocks.21.ffn.time_mix_r 0=512 21=0
BinaryOp         2682                     2 1 tensor_5978 blocks.21.ffn.time_mix_r tensor_5983 0=2
BinaryOp         2683                     2 1 tensor_5973 tensor_5983 tensor_5984 0=0
Reshape          2684                     1 1 tensor_5984 tensor_5985 0=0 1=1
Gemm             2685                     1 1 tensor_5985 tensor_5987 4=0 5=1 6=1 7=0 8=512 9=512 10=-1
Reshape          2686                     1 1 tensor_5987 tensor_5988 0=-1
Sigmoid          2687                     1 1 tensor_5988 tensor_5989
Reshape          2688                     1 1 tensor_5981 tensor_5990 0=0 1=1
Gemm             2689                     1 1 tensor_5990 tensor_5992 4=0 5=1 6=1 7=0 8=1792 9=512 10=-1
Reshape          2690                     1 1 tensor_5992 tensor_5993 0=-1
ReLU             2691                     1 1 tensor_5993 tensor_5994
BinaryOp         2692                     2 1 tensor_5994 tensor_5994 tensor_5995 0=2
Reshape          2693                     1 1 tensor_5995 tensor_5996 0=0 1=1
Gemm             2694                     1 1 tensor_5996 tensor_5998 4=0 5=1 6=1 7=0 8=512 9=1792 10=-1
Reshape          2695                     1 1 tensor_5998 tensor_5999 0=-1
BinaryOp         2696                     2 1 tensor_5989 tensor_5999 tensor_6000 0=2
BinaryOp         2697                     2 1 tensor_5970 tensor_6000 tensor_6001 0=0
Split            2698                     1 1 tensor_5974 output_state_21_2
Split            2699                     1 2 tensor_6001 tensor_6003 tensor_6004
LayerNorm        2700                     1 1 tensor_6003 tensor_6005 0=512 1=1.000000e-05 2=1
Split            2701                     1 3 tensor_6005 tensor_6006 tensor_6007 tensor_6008
Split            2702                     1 6 tensor_6006 tensor_6009 tensor_6010 tensor_6011 tensor_6012 tensor_6013 tensor_6014
BinaryOp         2703                     2 1 state_22_0 tensor_6007 tensor_6015 0=1
Split            2704                     1 6 tensor_6015 tensor_6016 tensor_6017 tensor_6018 tensor_6019 tensor_6020 tensor_6021
MemoryData       2705                     0 1 blocks.22.att.time_mix_x 0=512 21=0
BinaryOp         2706                     2 1 tensor_6016 blocks.22.att.time_mix_x tensor_6023 0=2
BinaryOp         2707                     2 1 tensor_6008 tensor_6023 tensor_6024 0=0
MemoryData       2708                     0 1 blocks.22.att.time_mix_w1 0=160 1=512 21=0
MatMul           2709                     2 1 tensor_6024 blocks.22.att.time_mix_w1 tensor_6026 0=0
TanH             2710                     1 1 tensor_6026 tensor_6027
Reshape          2711                     1 1 tensor_6027 tensor_6028 0=32 1=1 2=5
MemoryData       2712                     0 1 blocks.22.att.time_mix_w2 0=512 1=32 2=5 21=0
MatMul           2713                     2 1 tensor_6028 blocks.22.att.time_mix_w2 tensor_6030 0=0
Reshape          2714                     1 1 tensor_6030 tensor_6031 0=512 1=5
Slice            2715                     1 5 tensor_6031 tensor_6032 tensor_6033 tensor_6034 tensor_6035 tensor_6036 -23300=5,-233,-233,-233,-233,-233 1=0
Reshape          2716                     1 1 tensor_6032 tensor_6037 0=512
MemoryData       2717                     0 1 blocks.22.att.time_mix_w 0=512 21=0
BinaryOp         2718                     2 1 blocks.22.att.time_mix_w tensor_6037 tensor_6039 0=0
BinaryOp         2719                     2 1 tensor_6017 tensor_6039 tensor_6040 0=2
BinaryOp         2720                     2 1 tensor_6009 tensor_6040 tensor_6041 0=0
Reshape          2721                     1 1 tensor_6033 tensor_6042 0=512
MemoryData       2722                     0 1 blocks.22.att.time_mix_k 0=512 21=0
BinaryOp         2723                     2 1 blocks.22.att.time_mix_k tensor_6042 tensor_6044 0=0
BinaryOp         2724                     2 1 tensor_6018 tensor_6044 tensor_6045 0=2
BinaryOp         2725                     2 1 tensor_6010 tensor_6045 tensor_6046 0=0
Reshape          2726                     1 1 tensor_6034 tensor_6047 0=512
MemoryData       2727                     0 1 blocks.22.att.time_mix_v 0=512 21=0
BinaryOp         2728                     2 1 blocks.22.att.time_mix_v tensor_6047 tensor_6049 0=0
BinaryOp         2729                     2 1 tensor_6019 tensor_6049 tensor_6050 0=2
BinaryOp         2730                     2 1 tensor_6011 tensor_6050 tensor_6051 0=0
Reshape          2731                     1 1 tensor_6035 tensor_6052 0=512
MemoryData       2732                     0 1 blocks.22.att.time_mix_r 0=512 21=0
BinaryOp         2733                     2 1 blocks.22.att.time_mix_r tensor_6052 tensor_6054 0=0
BinaryOp         2734                     2 1 tensor_6020 tensor_6054 tensor_6055 0=2
BinaryOp         2735                     2 1 tensor_6012 tensor_6055 tensor_6056 0=0
Reshape          2736                     1 1 tensor_6036 tensor_6057 0=512
MemoryData       2737                     0 1 blocks.22.att.time_mix_g 0=512 21=0
BinaryOp         2738                     2 1 blocks.22.att.time_mix_g tensor_6057 tensor_6059 0=0
BinaryOp         2739                     2 1 tensor_6021 tensor_6059 tensor_6060 0=2
BinaryOp         2740                     2 1 tensor_6013 tensor_6060 tensor_6061 0=0
Reshape          2741                     1 1 tensor_6041 tensor_6062 0=0 1=1
Gemm             2742                     1 1 tensor_6062 tensor_6064 4=0 5=1 6=1 7=0 8=64 9=512 10=-1
Reshape          2743                     1 1 tensor_6064 tensor_6065 0=-1
TanH             2744                     1 1 tensor_6065 tensor_6066
Reshape          2745                     1 1 tensor_6066 tensor_6067 0=0 1=1
Gemm             2746                     1 1 tensor_6067 tensor_6069 4=0 5=1 6=1 7=0 8=512 9=64 10=-1
Reshape          2747                     1 1 tensor_6069 tensor_6070 0=-1
Reshape          2748                     1 1 tensor_6070 tensor_6071 0=1 1=64 2=8
MemoryData       2749                     0 1 blocks.22.att.time_decay 0=1 1=64 2=8 21=0
BinaryOp         2750                     2 1 blocks.22.att.time_decay tensor_6071 tensor_6073 0=0
Exp              2751                     1 1 tensor_6073 tensor_6074
BinaryOp         2752                     1 1 tensor_6074 tensor_6075 0=7 1=1 2=0.000000e+00
Exp              2753                     1 1 tensor_6075 tensor_6076
Reshape          2754                     1 1 tensor_6056 tensor_6077 0=0 1=1
Gemm             2755                     1 1 tensor_6077 tensor_6079 4=0 5=1 6=1 7=0 8=512 9=512 10=-1
Reshape          2756                     1 1 tensor_6079 tensor_6080 0=-1
Reshape          2757                     1 1 tensor_6080 tensor_6081 0=64 1=1 2=8
Reshape          2758                     1 1 tensor_6046 tensor_6082 0=0 1=1
Gemm             2759                     1 1 tensor_6082 tensor_6084 4=0 5=1 6=1 7=0 8=512 9=512 10=-1
Reshape          2760                     1 1 tensor_6084 tensor_6085 0=-1
Reshape          2761                     1 1 tensor_6085 tensor_6086 0=1 1=64 2=8
Reshape          2762                     1 1 tensor_6051 tensor_6087 0=0 1=1
Gemm             2763                     1 1 tensor_6087 tensor_6089 4=0 5=1 6=1 7=0 8=512 9=512 10=-1
Reshape          2764                     1 1 tensor_6089 tensor_6090 0=-1
Reshape          2765                     1 1 tensor_6090 tensor_6091 0=64 1=1 2=8
Reshape          2766                     1 1 tensor_6061 tensor_6092 0=0 1=1
Gemm             2767                     1 1 tensor_6092 tensor_6094 4=0 5=1 6=1 7=0 8=512 9=512 10=-1
Reshape          2768                     1 1 tensor_6094 tensor_6095 0=-1
Swish            2769                     1 1 tensor_6095 tensor_6096
MatMul           2770                     2 1 tensor_6086 tensor_6091 tensor_6097 0=0
Split            2771                     1 2 tensor_6097 tensor_6098 tensor_6099
Split            2772                     1 2 state_22_1 tensor_6100 tensor_6101
MemoryData       2773                     0 1 blocks.22.att.time_first 0=1 1=64 2=8 21=0
BinaryOp         2774                     2 1 tensor_6098 blocks.22.att.time_first tensor_6103 0=2
BinaryOp         2775                     2 1 tensor_6103 tensor_6100 tensor_6104 0=0
MatMul           2776                     2 1 tensor_6081 tensor_6104 tensor_6105 0=0
BinaryOp         2777                     2 1 tensor_6101 tensor_6076 tensor_6106 0=2
BinaryOp         2778                     2 1 tensor_6099 tensor_6106 tensor_6107 0=0
Reshape          2779                     1 1 tensor_6105 tensor_6108 0=512
GroupNorm        2780                     1 1 tensor_6108 tensor_6109 0=8 1=512 2=1.000000e-05 3=1
Reshape          2781                     1 1 tensor_6109 tensor_6110 0=512
BinaryOp         2782                     2 1 tensor_6110 tensor_6096 tensor_6111 0=2
Reshape          2783                     1 1 tensor_6111 tensor_6112 0=0 1=1
Gemm             2784                     1 1 tensor_6112 tensor_6114 4=0 5=1 6=1 7=0 8=512 9=512 10=-1
Reshape          2785                     1 1 tensor_6114 tensor_6115 0=-1
BinaryOp         2786                     2 1 tensor_6004 tensor_6115 tensor_6116 0=0
Split            2787                     1 1 tensor_6014 output_state_22_0
Split            2788                     1 1 tensor_6107 output_state_22_1
Split            2789                     1 2 tensor_6116 tensor_6119 tensor_6120
LayerNorm        2790                     1 1 tensor_6119 tensor_6121 0=512 1=1.000000e-05 2=1
Split            2791                     1 4 tensor_6121 tensor_6122 tensor_6123 tensor_6124 tensor_6125
BinaryOp         2792                     2 1 state_22_2 tensor_6125 tensor_6126 0=1
Split            2793                     1 2 tensor_6126 tensor_6127 tensor_6128
MemoryData       2794                     0 1 blocks.22.ffn.time_mix_k 0=512 21=0
BinaryOp         2795                     2 1 tensor_6127 blocks.22.ffn.time_mix_k tensor_6130 0=2
BinaryOp         2796                     2 1 tensor_6122 tensor_6130 tensor_6131 0=0
MemoryData       2797                     0 1 blocks.22.ffn.time_mix_r 0=512 21=0
BinaryOp         2798                     2 1 tensor_6128 blocks.22.ffn.time_mix_r tensor_6133 0=2
BinaryOp         2799                     2 1 tensor_6123 tensor_6133 tensor_6134 0=0
Reshape          2800                     1 1 tensor_6134 tensor_6135 0=0 1=1
Gemm             2801                     1 1 tensor_6135 tensor_6137 4=0 5=1 6=1 7=0 8=512 9=512 10=-1
Reshape          2802                     1 1 tensor_6137 tensor_6138 0=-1
Sigmoid          2803                     1 1 tensor_6138 tensor_6139
Reshape          2804                     1 1 tensor_6131 tensor_6140 0=0 1=1
Gemm             2805                     1 1 tensor_6140 tensor_6142 4=0 5=1 6=1 7=0 8=1792 9=512 10=-1
Reshape          2806                     1 1 tensor_6142 tensor_6143 0=-1
ReLU             2807                     1 1 tensor_6143 tensor_6144
BinaryOp         2808                     2 1 tensor_6144 tensor_6144 tensor_6145 0=2
Reshape          2809                     1 1 tensor_6145 tensor_6146 0=0 1=1
Gemm             2810                     1 1 tensor_6146 tensor_6148 4=0 5=1 6=1 7=0 8=512 9=1792 10=-1
Reshape          2811                     1 1 tensor_6148 tensor_6149 0=-1
BinaryOp         2812                     2 1 tensor_6139 tensor_6149 tensor_6150 0=2
BinaryOp         2813                     2 1 tensor_6120 tensor_6150 tensor_6151 0=0
Split            2814                     1 1 tensor_6124 output_state_22_2
Split            2815                     1 2 tensor_6151 tensor_6153 tensor_6154
LayerNorm        2816                     1 1 tensor_6153 tensor_6155 0=512 1=1.000000e-05 2=1
Split            2817                     1 3 tensor_6155 tensor_6156 tensor_6157 tensor_6158
Split            2818                     1 6 tensor_6156 tensor_6159 tensor_6160 tensor_6161 tensor_6162 tensor_6163 tensor_6164
BinaryOp         2819                     2 1 state_23_0 tensor_6157 tensor_6165 0=1
Split            2820                     1 6 tensor_6165 tensor_6166 tensor_6167 tensor_6168 tensor_6169 tensor_6170 tensor_6171
MemoryData       2821                     0 1 blocks.23.att.time_mix_x 0=512 21=0
BinaryOp         2822                     2 1 tensor_6166 blocks.23.att.time_mix_x tensor_6173 0=2
BinaryOp         2823                     2 1 tensor_6158 tensor_6173 tensor_6174 0=0
MemoryData       2824                     0 1 blocks.23.att.time_mix_w1 0=160 1=512 21=0
MatMul           2825                     2 1 tensor_6174 blocks.23.att.time_mix_w1 tensor_6176 0=0
TanH             2826                     1 1 tensor_6176 tensor_6177
Reshape          2827                     1 1 tensor_6177 tensor_6178 0=32 1=1 2=5
MemoryData       2828                     0 1 blocks.23.att.time_mix_w2 0=512 1=32 2=5 21=0
MatMul           2829                     2 1 tensor_6178 blocks.23.att.time_mix_w2 tensor_6180 0=0
Reshape          2830                     1 1 tensor_6180 tensor_6181 0=512 1=5
Slice            2831                     1 5 tensor_6181 tensor_6182 tensor_6183 tensor_6184 tensor_6185 tensor_6186 -23300=5,-233,-233,-233,-233,-233 1=0
Reshape          2832                     1 1 tensor_6182 tensor_6187 0=512
MemoryData       2833                     0 1 blocks.23.att.time_mix_w 0=512 21=0
BinaryOp         2834                     2 1 blocks.23.att.time_mix_w tensor_6187 tensor_6189 0=0
BinaryOp         2835                     2 1 tensor_6167 tensor_6189 tensor_6190 0=2
BinaryOp         2836                     2 1 tensor_6159 tensor_6190 tensor_6191 0=0
Reshape          2837                     1 1 tensor_6183 tensor_6192 0=512
MemoryData       2838                     0 1 blocks.23.att.time_mix_k 0=512 21=0
BinaryOp         2839                     2 1 blocks.23.att.time_mix_k tensor_6192 tensor_6194 0=0
BinaryOp         2840                     2 1 tensor_6168 tensor_6194 tensor_6195 0=2
BinaryOp         2841                     2 1 tensor_6160 tensor_6195 tensor_6196 0=0
Reshape          2842                     1 1 tensor_6184 tensor_6197 0=512
MemoryData       2843                     0 1 blocks.23.att.time_mix_v 0=512 21=0
BinaryOp         2844                     2 1 blocks.23.att.time_mix_v tensor_6197 tensor_6199 0=0
BinaryOp         2845                     2 1 tensor_6169 tensor_6199 tensor_6200 0=2
BinaryOp         2846                     2 1 tensor_6161 tensor_6200 tensor_6201 0=0
Reshape          2847                     1 1 tensor_6185 tensor_6202 0=512
MemoryData       2848                     0 1 blocks.23.att.time_mix_r 0=512 21=0
BinaryOp         2849                     2 1 blocks.23.att.time_mix_r tensor_6202 tensor_6204 0=0
BinaryOp         2850                     2 1 tensor_6170 tensor_6204 tensor_6205 0=2
BinaryOp         2851                     2 1 tensor_6162 tensor_6205 tensor_6206 0=0
Reshape          2852                     1 1 tensor_6186 tensor_6207 0=512
MemoryData       2853                     0 1 blocks.23.att.time_mix_g 0=512 21=0
BinaryOp         2854                     2 1 blocks.23.att.time_mix_g tensor_6207 tensor_6209 0=0
BinaryOp         2855                     2 1 tensor_6171 tensor_6209 tensor_6210 0=2
BinaryOp         2856                     2 1 tensor_6163 tensor_6210 tensor_6211 0=0
Reshape          2857                     1 1 tensor_6191 tensor_6212 0=0 1=1
Gemm             2858                     1 1 tensor_6212 tensor_6214 4=0 5=1 6=1 7=0 8=64 9=512 10=-1
Reshape          2859                     1 1 tensor_6214 tensor_6215 0=-1
TanH             2860                     1 1 tensor_6215 tensor_6216
Reshape          2861                     1 1 tensor_6216 tensor_6217 0=0 1=1
Gemm             2862                     1 1 tensor_6217 tensor_6219 4=0 5=1 6=1 7=0 8=512 9=64 10=-1
Reshape          2863                     1 1 tensor_6219 tensor_6220 0=-1
Reshape          2864                     1 1 tensor_6220 tensor_6221 0=1 1=64 2=8
MemoryData       2865                     0 1 blocks.23.att.time_decay 0=1 1=64 2=8 21=0
BinaryOp         2866                     2 1 blocks.23.att.time_decay tensor_6221 tensor_6223 0=0
Exp              2867                     1 1 tensor_6223 tensor_6224
BinaryOp         2868                     1 1 tensor_6224 tensor_6225 0=7 1=1 2=0.000000e+00
Exp              2869                     1 1 tensor_6225 tensor_6226
Reshape          2870                     1 1 tensor_6206 tensor_6227 0=0 1=1
Gemm             2871                     1 1 tensor_6227 tensor_6229 4=0 5=1 6=1 7=0 8=512 9=512 10=-1
Reshape          2872                     1 1 tensor_6229 tensor_6230 0=-1
Reshape          2873                     1 1 tensor_6230 tensor_6231 0=64 1=1 2=8
Reshape          2874                     1 1 tensor_6196 tensor_6232 0=0 1=1
Gemm             2875                     1 1 tensor_6232 tensor_6234 4=0 5=1 6=1 7=0 8=512 9=512 10=-1
Reshape          2876                     1 1 tensor_6234 tensor_6235 0=-1
Reshape          2877                     1 1 tensor_6235 tensor_6236 0=1 1=64 2=8
Reshape          2878                     1 1 tensor_6201 tensor_6237 0=0 1=1
Gemm             2879                     1 1 tensor_6237 tensor_6239 4=0 5=1 6=1 7=0 8=512 9=512 10=-1
Reshape          2880                     1 1 tensor_6239 tensor_6240 0=-1
Reshape          2881                     1 1 tensor_6240 tensor_6241 0=64 1=1 2=8
Reshape          2882                     1 1 tensor_6211 tensor_6242 0=0 1=1
Gemm             2883                     1 1 tensor_6242 tensor_6244 4=0 5=1 6=1 7=0 8=512 9=512 10=-1
Reshape          2884                     1 1 tensor_6244 tensor_6245 0=-1
Swish            2885                     1 1 tensor_6245 tensor_6246
MatMul           2886                     2 1 tensor_6236 tensor_6241 tensor_6247 0=0
Split            2887                     1 2 tensor_6247 tensor_6248 tensor_6249
Split            2888                     1 2 state_23_1 tensor_6250 tensor_6251
MemoryData       2889                     0 1 blocks.23.att.time_first 0=1 1=64 2=8 21=0
BinaryOp         2890                     2 1 tensor_6248 blocks.23.att.time_first tensor_6253 0=2
BinaryOp         2891                     2 1 tensor_6253 tensor_6250 tensor_6254 0=0
MatMul           2892                     2 1 tensor_6231 tensor_6254 tensor_6255 0=0
BinaryOp         2893                     2 1 tensor_6251 tensor_6226 tensor_6256 0=2
BinaryOp         2894                     2 1 tensor_6249 tensor_6256 tensor_6257 0=0
Reshape          2895                     1 1 tensor_6255 tensor_6258 0=512
GroupNorm        2896                     1 1 tensor_6258 tensor_6259 0=8 1=512 2=1.000000e-05 3=1
Reshape          2897                     1 1 tensor_6259 tensor_6260 0=512
BinaryOp         2898                     2 1 tensor_6260 tensor_6246 tensor_6261 0=2
Reshape          2899                     1 1 tensor_6261 tensor_6262 0=0 1=1
Gemm             2900                     1 1 tensor_6262 tensor_6264 4=0 5=1 6=1 7=0 8=512 9=512 10=-1
Reshape          2901                     1 1 tensor_6264 tensor_6265 0=-1
BinaryOp         2902                     2 1 tensor_6154 tensor_6265 tensor_6266 0=0
Split            2903                     1 1 tensor_6164 output_state_23_0
Split            2904                     1 1 tensor_6257 output_state_23_1
Split            2905                     1 2 tensor_6266 tensor_6269 tensor_6270
LayerNorm        2906                     1 1 tensor_6269 tensor_6271 0=512 1=1.000000e-05 2=1
Split            2907                     1 4 tensor_6271 tensor_6272 tensor_6273 tensor_6274 tensor_6275
BinaryOp         2908                     2 1 state_23_2 tensor_6275 tensor_6276 0=1
Split            2909                     1 2 tensor_6276 tensor_6277 tensor_6278
MemoryData       2910                     0 1 blocks.23.ffn.time_mix_k 0=512 21=0
BinaryOp         2911                     2 1 tensor_6277 blocks.23.ffn.time_mix_k tensor_6280 0=2
BinaryOp         2912                     2 1 tensor_6272 tensor_6280 tensor_6281 0=0
MemoryData       2913                     0 1 blocks.23.ffn.time_mix_r 0=512 21=0
BinaryOp         2914                     2 1 tensor_6278 blocks.23.ffn.time_mix_r tensor_6283 0=2
BinaryOp         2915                     2 1 tensor_6273 tensor_6283 tensor_6284 0=0
Reshape          2916                     1 1 tensor_6284 tensor_6285 0=0 1=1
Gemm             2917                     1 1 tensor_6285 tensor_6287 4=0 5=1 6=1 7=0 8=512 9=512 10=-1
Reshape          2918                     1 1 tensor_6287 tensor_6288 0=-1
Sigmoid          2919                     1 1 tensor_6288 tensor_6289
Reshape          2920                     1 1 tensor_6281 tensor_6290 0=0 1=1
Gemm             2921                     1 1 tensor_6290 tensor_6292 4=0 5=1 6=1 7=0 8=1792 9=512 10=-1
Reshape          2922                     1 1 tensor_6292 tensor_6293 0=-1
ReLU             2923                     1 1 tensor_6293 tensor_6294
BinaryOp         2924                     2 1 tensor_6294 tensor_6294 tensor_6295 0=2
Reshape          2925                     1 1 tensor_6295 tensor_6296 0=0 1=1
Gemm             2926                     1 1 tensor_6296 tensor_6298 4=0 5=1 6=1 7=0 8=512 9=1792 10=-1
Reshape          2927                     1 1 tensor_6298 tensor_6299 0=-1
BinaryOp         2928                     2 1 tensor_6289 tensor_6299 tensor_6300 0=2
BinaryOp         2929                     2 1 tensor_6270 tensor_6300 tensor_6301 0=0
Split            2930                     1 1 tensor_6274 output_state_23_2
LayerNorm        2931                     1 1 tensor_6301 tensor_6303 0=512 1=1.000000e-05 2=1
Reshape          2932                     1 1 tensor_6303 tensor_6304 0=0 1=1
Gemm             2933                     1 1 tensor_6304 tensor_6306 4=0 5=1 6=1 7=0 8=128 9=512 10=-1
Reshape          2934                     1 1 tensor_6306 tensor_6307 0=-1
Split            2935                     1 1 tensor_6307 output
